{"format": "layers-model", "generatedBy": "keras v2.5.0", "convertedBy": "TensorFlow.js Converter v3.8.0", "modelTopology": {"keras_version": "2.5.0", "backend": "tensorflow", "model_config": {"class_name": "Functional", "config": {"name": "Yolo_v4", "layers": [{"class_name": "InputLayer", "config": {"batch_input_shape": [null, 416, 416, 3], "dtype": "float32", "sparse": false, "ragged": false, "name": "input_0"}, "name": "input_0", "inbound_nodes": []}, {"class_name": "Conv2D", "config": {"name": "convn_0", "trainable": true, "dtype": "float32", "filters": 32, "kernel_size": [3, 3], "strides": [1, 1], "padding": "same", "data_format": "channels_last", "dilation_rate": [1, 1], "groups": 1, "activation": "linear", "use_bias": true, "kernel_initializer": {"class_name": "GlorotUniform", "config": {"seed": null}}, "bias_initializer": {"class_name": "Zeros", "config": {}}, "kernel_regularizer": null, "bias_regularizer": null, "activity_regularizer": null, "kernel_constraint": null, "bias_constraint": null}, "name": "convn_0", "inbound_nodes": [[["input_0", 0, 0, {}]]]}, {"class_name": "BatchNormalization", "config": {"name": "BN_0", "trainable": true, "dtype": "float32", "axis": [3], "momentum": 0.99, "epsilon": 0.001, "center": true, "scale": true, "beta_initializer": {"class_name": "Zeros", "config": {}}, "gamma_initializer": {"class_name": "Ones", "config": {}}, "moving_mean_initializer": {"class_name": "Zeros", "config": {}}, "moving_variance_initializer": {"class_name": "Ones", "config": {}}, "beta_regularizer": null, "gamma_regularizer": null, "beta_constraint": null, "gamma_constraint": null}, "name": "BN_0", "inbound_nodes": [[["convn_0", 0, 0, {}]]]}, {"class_name": "Activation", "config": {"name": "mish_0", "trainable": true, "dtype": "float32", "activation": {"class_name": "Mish", "config": {"name": "mish", "trainable": true, "dtype": "float32", "activation": "mish"}, "shared_object_id": 9}}, "name": "mish_0", "inbound_nodes": [[["BN_0", 0, 0, {}]]]}, {"class_name": "ZeroPadding2D", "config": {"name": "zerop_1", "trainable": true, "dtype": "float32", "padding": [[1, 0], [1, 0]], "data_format": "channels_last"}, "name": "zerop_1", "inbound_nodes": [[["mish_0", 0, 0, {}]]]}, {"class_name": "Conv2D", "config": {"name": "convn_1", "trainable": true, "dtype": "float32", "filters": 64, "kernel_size": [3, 3], "strides": [2, 2], "padding": "valid", "data_format": "channels_last", "dilation_rate": [1, 1], "groups": 1, "activation": "linear", "use_bias": true, "kernel_initializer": {"class_name": "GlorotUniform", "config": {"seed": null}}, "bias_initializer": {"class_name": "Zeros", "config": {}}, "kernel_regularizer": null, "bias_regularizer": null, "activity_regularizer": null, "kernel_constraint": null, "bias_constraint": null}, "name": "convn_1", "inbound_nodes": [[["zerop_1", 0, 0, {}]]]}, {"class_name": "BatchNormalization", "config": {"name": "BN_1", "trainable": true, "dtype": "float32", "axis": [3], "momentum": 0.99, "epsilon": 0.001, "center": true, "scale": true, "beta_initializer": {"class_name": "Zeros", "config": {}}, "gamma_initializer": {"class_name": "Ones", "config": {}}, "moving_mean_initializer": {"class_name": "Zeros", "config": {}}, "moving_variance_initializer": {"class_name": "Ones", "config": {}}, "beta_regularizer": null, "gamma_regularizer": null, "beta_constraint": null, "gamma_constraint": null}, "name": "BN_1", "inbound_nodes": [[["convn_1", 0, 0, {}]]]}, {"class_name": "Activation", "config": {"name": "mish_1", "trainable": true, "dtype": "float32", "activation": {"class_name": "Mish", "config": {"name": "mish", "trainable": true, "dtype": "float32", "activation": "mish"}, "shared_object_id": 9}}, "name": "mish_1", "inbound_nodes": [[["BN_1", 0, 0, {}]]]}, {"class_name": "Conv2D", "config": {"name": "convn_4", "trainable": true, "dtype": "float32", "filters": 64, "kernel_size": [1, 1], "strides": [1, 1], "padding": "same", "data_format": "channels_last", "dilation_rate": [1, 1], "groups": 1, "activation": "linear", "use_bias": true, "kernel_initializer": {"class_name": "GlorotUniform", "config": {"seed": null}}, "bias_initializer": {"class_name": "Zeros", "config": {}}, "kernel_regularizer": null, "bias_regularizer": null, "activity_regularizer": null, "kernel_constraint": null, "bias_constraint": null}, "name": "convn_4", "inbound_nodes": [[["mish_1", 0, 0, {}]]]}, {"class_name": "BatchNormalization", "config": {"name": "BN_4", "trainable": true, "dtype": "float32", "axis": [3], "momentum": 0.99, "epsilon": 0.001, "center": true, "scale": true, "beta_initializer": {"class_name": "Zeros", "config": {}}, "gamma_initializer": {"class_name": "Ones", "config": {}}, "moving_mean_initializer": {"class_name": "Zeros", "config": {}}, "moving_variance_initializer": {"class_name": "Ones", "config": {}}, "beta_regularizer": null, "gamma_regularizer": null, "beta_constraint": null, "gamma_constraint": null}, "name": "BN_4", "inbound_nodes": [[["convn_4", 0, 0, {}]]]}, {"class_name": "Activation", "config": {"name": "mish_4", "trainable": true, "dtype": "float32", "activation": {"class_name": "Mish", "config": {"name": "mish", "trainable": true, "dtype": "float32", "activation": "mish"}, "shared_object_id": 9}}, "name": "mish_4", "inbound_nodes": [[["BN_4", 0, 0, {}]]]}, {"class_name": "Conv2D", "config": {"name": "convn_5", "trainable": true, "dtype": "float32", "filters": 32, "kernel_size": [1, 1], "strides": [1, 1], "padding": "same", "data_format": "channels_last", "dilation_rate": [1, 1], "groups": 1, "activation": "linear", "use_bias": true, "kernel_initializer": {"class_name": "GlorotUniform", "config": {"seed": null}}, "bias_initializer": {"class_name": "Zeros", "config": {}}, "kernel_regularizer": null, "bias_regularizer": null, "activity_regularizer": null, "kernel_constraint": null, "bias_constraint": null}, "name": "convn_5", "inbound_nodes": [[["mish_4", 0, 0, {}]]]}, {"class_name": "BatchNormalization", "config": {"name": "BN_5", "trainable": true, "dtype": "float32", "axis": [3], "momentum": 0.99, "epsilon": 0.001, "center": true, "scale": true, "beta_initializer": {"class_name": "Zeros", "config": {}}, "gamma_initializer": {"class_name": "Ones", "config": {}}, "moving_mean_initializer": {"class_name": "Zeros", "config": {}}, "moving_variance_initializer": {"class_name": "Ones", "config": {}}, "beta_regularizer": null, "gamma_regularizer": null, "beta_constraint": null, "gamma_constraint": null}, "name": "BN_5", "inbound_nodes": [[["convn_5", 0, 0, {}]]]}, {"class_name": "Activation", "config": {"name": "mish_5", "trainable": true, "dtype": "float32", "activation": {"class_name": "Mish", "config": {"name": "mish", "trainable": true, "dtype": "float32", "activation": "mish"}, "shared_object_id": 9}}, "name": "mish_5", "inbound_nodes": [[["BN_5", 0, 0, {}]]]}, {"class_name": "Conv2D", "config": {"name": "convn_6", "trainable": true, "dtype": "float32", "filters": 64, "kernel_size": [3, 3], "strides": [1, 1], "padding": "same", "data_format": "channels_last", "dilation_rate": [1, 1], "groups": 1, "activation": "linear", "use_bias": true, "kernel_initializer": {"class_name": "GlorotUniform", "config": {"seed": null}}, "bias_initializer": {"class_name": "Zeros", "config": {}}, "kernel_regularizer": null, "bias_regularizer": null, "activity_regularizer": null, "kernel_constraint": null, "bias_constraint": null}, "name": "convn_6", "inbound_nodes": [[["mish_5", 0, 0, {}]]]}, {"class_name": "BatchNormalization", "config": {"name": "BN_6", "trainable": true, "dtype": "float32", "axis": [3], "momentum": 0.99, "epsilon": 0.001, "center": true, "scale": true, "beta_initializer": {"class_name": "Zeros", "config": {}}, "gamma_initializer": {"class_name": "Ones", "config": {}}, "moving_mean_initializer": {"class_name": "Zeros", "config": {}}, "moving_variance_initializer": {"class_name": "Ones", "config": {}}, "beta_regularizer": null, "gamma_regularizer": null, "beta_constraint": null, "gamma_constraint": null}, "name": "BN_6", "inbound_nodes": [[["convn_6", 0, 0, {}]]]}, {"class_name": "Activation", "config": {"name": "mish_6", "trainable": true, "dtype": "float32", "activation": {"class_name": "Mish", "config": {"name": "mish", "trainable": true, "dtype": "float32", "activation": "mish"}, "shared_object_id": 9}}, "name": "mish_6", "inbound_nodes": [[["BN_6", 0, 0, {}]]]}, {"class_name": "Add", "config": {"name": "add_7", "trainable": true, "dtype": "float32"}, "name": "add_7", "inbound_nodes": [[["mish_4", 0, 0, {}], ["mish_6", 0, 0, {}]]]}, {"class_name": "Conv2D", "config": {"name": "convn_8", "trainable": true, "dtype": "float32", "filters": 64, "kernel_size": [1, 1], "strides": [1, 1], "padding": "same", "data_format": "channels_last", "dilation_rate": [1, 1], "groups": 1, "activation": "linear", "use_bias": true, "kernel_initializer": {"class_name": "GlorotUniform", "config": {"seed": null}}, "bias_initializer": {"class_name": "Zeros", "config": {}}, "kernel_regularizer": null, "bias_regularizer": null, "activity_regularizer": null, "kernel_constraint": null, "bias_constraint": null}, "name": "convn_8", "inbound_nodes": [[["add_7", 0, 0, {}]]]}, {"class_name": "Conv2D", "config": {"name": "convn_2", "trainable": true, "dtype": "float32", "filters": 64, "kernel_size": [1, 1], "strides": [1, 1], "padding": "same", "data_format": "channels_last", "dilation_rate": [1, 1], "groups": 1, "activation": "linear", "use_bias": true, "kernel_initializer": {"class_name": "GlorotUniform", "config": {"seed": null}}, "bias_initializer": {"class_name": "Zeros", "config": {}}, "kernel_regularizer": null, "bias_regularizer": null, "activity_regularizer": null, "kernel_constraint": null, "bias_constraint": null}, "name": "convn_2", "inbound_nodes": [[["mish_1", 0, 0, {}]]]}, {"class_name": "BatchNormalization", "config": {"name": "BN_8", "trainable": true, "dtype": "float32", "axis": [3], "momentum": 0.99, "epsilon": 0.001, "center": true, "scale": true, "beta_initializer": {"class_name": "Zeros", "config": {}}, "gamma_initializer": {"class_name": "Ones", "config": {}}, "moving_mean_initializer": {"class_name": "Zeros", "config": {}}, "moving_variance_initializer": {"class_name": "Ones", "config": {}}, "beta_regularizer": null, "gamma_regularizer": null, "beta_constraint": null, "gamma_constraint": null}, "name": "BN_8", "inbound_nodes": [[["convn_8", 0, 0, {}]]]}, {"class_name": "BatchNormalization", "config": {"name": "BN_2", "trainable": true, "dtype": "float32", "axis": [3], "momentum": 0.99, "epsilon": 0.001, "center": true, "scale": true, "beta_initializer": {"class_name": "Zeros", "config": {}}, "gamma_initializer": {"class_name": "Ones", "config": {}}, "moving_mean_initializer": {"class_name": "Zeros", "config": {}}, "moving_variance_initializer": {"class_name": "Ones", "config": {}}, "beta_regularizer": null, "gamma_regularizer": null, "beta_constraint": null, "gamma_constraint": null}, "name": "BN_2", "inbound_nodes": [[["convn_2", 0, 0, {}]]]}, {"class_name": "Activation", "config": {"name": "mish_8", "trainable": true, "dtype": "float32", "activation": {"class_name": "Mish", "config": {"name": "mish", "trainable": true, "dtype": "float32", "activation": "mish"}, "shared_object_id": 9}}, "name": "mish_8", "inbound_nodes": [[["BN_8", 0, 0, {}]]]}, {"class_name": "Activation", "config": {"name": "mish_2", "trainable": true, "dtype": "float32", "activation": {"class_name": "Mish", "config": {"name": "mish", "trainable": true, "dtype": "float32", "activation": "mish"}, "shared_object_id": 9}}, "name": "mish_2", "inbound_nodes": [[["BN_2", 0, 0, {}]]]}, {"class_name": "Concatenate", "config": {"name": "concat_9", "trainable": true, "dtype": "float32", "axis": -1}, "name": "concat_9", "inbound_nodes": [[["mish_8", 0, 0, {}], ["mish_2", 0, 0, {}]]]}, {"class_name": "Conv2D", "config": {"name": "convn_10", "trainable": true, "dtype": "float32", "filters": 64, "kernel_size": [1, 1], "strides": [1, 1], "padding": "same", "data_format": "channels_last", "dilation_rate": [1, 1], "groups": 1, "activation": "linear", "use_bias": true, "kernel_initializer": {"class_name": "GlorotUniform", "config": {"seed": null}}, "bias_initializer": {"class_name": "Zeros", "config": {}}, "kernel_regularizer": null, "bias_regularizer": null, "activity_regularizer": null, "kernel_constraint": null, "bias_constraint": null}, "name": "convn_10", "inbound_nodes": [[["concat_9", 0, 0, {}]]]}, {"class_name": "BatchNormalization", "config": {"name": "BN_10", "trainable": true, "dtype": "float32", "axis": [3], "momentum": 0.99, "epsilon": 0.001, "center": true, "scale": true, "beta_initializer": {"class_name": "Zeros", "config": {}}, "gamma_initializer": {"class_name": "Ones", "config": {}}, "moving_mean_initializer": {"class_name": "Zeros", "config": {}}, "moving_variance_initializer": {"class_name": "Ones", "config": {}}, "beta_regularizer": null, "gamma_regularizer": null, "beta_constraint": null, "gamma_constraint": null}, "name": "BN_10", "inbound_nodes": [[["convn_10", 0, 0, {}]]]}, {"class_name": "Activation", "config": {"name": "mish_10", "trainable": true, "dtype": "float32", "activation": {"class_name": "Mish", "config": {"name": "mish", "trainable": true, "dtype": "float32", "activation": "mish"}, "shared_object_id": 9}}, "name": "mish_10", "inbound_nodes": [[["BN_10", 0, 0, {}]]]}, {"class_name": "ZeroPadding2D", "config": {"name": "zerop_11", "trainable": true, "dtype": "float32", "padding": [[1, 0], [1, 0]], "data_format": "channels_last"}, "name": "zerop_11", "inbound_nodes": [[["mish_10", 0, 0, {}]]]}, {"class_name": "Conv2D", "config": {"name": "convn_11", "trainable": true, "dtype": "float32", "filters": 128, "kernel_size": [3, 3], "strides": [2, 2], "padding": "valid", "data_format": "channels_last", "dilation_rate": [1, 1], "groups": 1, "activation": "linear", "use_bias": true, "kernel_initializer": {"class_name": "GlorotUniform", "config": {"seed": null}}, "bias_initializer": {"class_name": "Zeros", "config": {}}, "kernel_regularizer": null, "bias_regularizer": null, "activity_regularizer": null, "kernel_constraint": null, "bias_constraint": null}, "name": "convn_11", "inbound_nodes": [[["zerop_11", 0, 0, {}]]]}, {"class_name": "BatchNormalization", "config": {"name": "BN_11", "trainable": true, "dtype": "float32", "axis": [3], "momentum": 0.99, "epsilon": 0.001, "center": true, "scale": true, "beta_initializer": {"class_name": "Zeros", "config": {}}, "gamma_initializer": {"class_name": "Ones", "config": {}}, "moving_mean_initializer": {"class_name": "Zeros", "config": {}}, "moving_variance_initializer": {"class_name": "Ones", "config": {}}, "beta_regularizer": null, "gamma_regularizer": null, "beta_constraint": null, "gamma_constraint": null}, "name": "BN_11", "inbound_nodes": [[["convn_11", 0, 0, {}]]]}, {"class_name": "Activation", "config": {"name": "mish_11", "trainable": true, "dtype": "float32", "activation": {"class_name": "Mish", "config": {"name": "mish", "trainable": true, "dtype": "float32", "activation": "mish"}, "shared_object_id": 9}}, "name": "mish_11", "inbound_nodes": [[["BN_11", 0, 0, {}]]]}, {"class_name": "Conv2D", "config": {"name": "convn_14", "trainable": true, "dtype": "float32", "filters": 64, "kernel_size": [1, 1], "strides": [1, 1], "padding": "same", "data_format": "channels_last", "dilation_rate": [1, 1], "groups": 1, "activation": "linear", "use_bias": true, "kernel_initializer": {"class_name": "GlorotUniform", "config": {"seed": null}}, "bias_initializer": {"class_name": "Zeros", "config": {}}, "kernel_regularizer": null, "bias_regularizer": null, "activity_regularizer": null, "kernel_constraint": null, "bias_constraint": null}, "name": "convn_14", "inbound_nodes": [[["mish_11", 0, 0, {}]]]}, {"class_name": "BatchNormalization", "config": {"name": "BN_14", "trainable": true, "dtype": "float32", "axis": [3], "momentum": 0.99, "epsilon": 0.001, "center": true, "scale": true, "beta_initializer": {"class_name": "Zeros", "config": {}}, "gamma_initializer": {"class_name": "Ones", "config": {}}, "moving_mean_initializer": {"class_name": "Zeros", "config": {}}, "moving_variance_initializer": {"class_name": "Ones", "config": {}}, "beta_regularizer": null, "gamma_regularizer": null, "beta_constraint": null, "gamma_constraint": null}, "name": "BN_14", "inbound_nodes": [[["convn_14", 0, 0, {}]]]}, {"class_name": "Activation", "config": {"name": "mish_14", "trainable": true, "dtype": "float32", "activation": {"class_name": "Mish", "config": {"name": "mish", "trainable": true, "dtype": "float32", "activation": "mish"}, "shared_object_id": 9}}, "name": "mish_14", "inbound_nodes": [[["BN_14", 0, 0, {}]]]}, {"class_name": "Conv2D", "config": {"name": "convn_15", "trainable": true, "dtype": "float32", "filters": 64, "kernel_size": [1, 1], "strides": [1, 1], "padding": "same", "data_format": "channels_last", "dilation_rate": [1, 1], "groups": 1, "activation": "linear", "use_bias": true, "kernel_initializer": {"class_name": "GlorotUniform", "config": {"seed": null}}, "bias_initializer": {"class_name": "Zeros", "config": {}}, "kernel_regularizer": null, "bias_regularizer": null, "activity_regularizer": null, "kernel_constraint": null, "bias_constraint": null}, "name": "convn_15", "inbound_nodes": [[["mish_14", 0, 0, {}]]]}, {"class_name": "BatchNormalization", "config": {"name": "BN_15", "trainable": true, "dtype": "float32", "axis": [3], "momentum": 0.99, "epsilon": 0.001, "center": true, "scale": true, "beta_initializer": {"class_name": "Zeros", "config": {}}, "gamma_initializer": {"class_name": "Ones", "config": {}}, "moving_mean_initializer": {"class_name": "Zeros", "config": {}}, "moving_variance_initializer": {"class_name": "Ones", "config": {}}, "beta_regularizer": null, "gamma_regularizer": null, "beta_constraint": null, "gamma_constraint": null}, "name": "BN_15", "inbound_nodes": [[["convn_15", 0, 0, {}]]]}, {"class_name": "Activation", "config": {"name": "mish_15", "trainable": true, "dtype": "float32", "activation": {"class_name": "Mish", "config": {"name": "mish", "trainable": true, "dtype": "float32", "activation": "mish"}, "shared_object_id": 9}}, "name": "mish_15", "inbound_nodes": [[["BN_15", 0, 0, {}]]]}, {"class_name": "Conv2D", "config": {"name": "convn_16", "trainable": true, "dtype": "float32", "filters": 64, "kernel_size": [3, 3], "strides": [1, 1], "padding": "same", "data_format": "channels_last", "dilation_rate": [1, 1], "groups": 1, "activation": "linear", "use_bias": true, "kernel_initializer": {"class_name": "GlorotUniform", "config": {"seed": null}}, "bias_initializer": {"class_name": "Zeros", "config": {}}, "kernel_regularizer": null, "bias_regularizer": null, "activity_regularizer": null, "kernel_constraint": null, "bias_constraint": null}, "name": "convn_16", "inbound_nodes": [[["mish_15", 0, 0, {}]]]}, {"class_name": "BatchNormalization", "config": {"name": "BN_16", "trainable": true, "dtype": "float32", "axis": [3], "momentum": 0.99, "epsilon": 0.001, "center": true, "scale": true, "beta_initializer": {"class_name": "Zeros", "config": {}}, "gamma_initializer": {"class_name": "Ones", "config": {}}, "moving_mean_initializer": {"class_name": "Zeros", "config": {}}, "moving_variance_initializer": {"class_name": "Ones", "config": {}}, "beta_regularizer": null, "gamma_regularizer": null, "beta_constraint": null, "gamma_constraint": null}, "name": "BN_16", "inbound_nodes": [[["convn_16", 0, 0, {}]]]}, {"class_name": "Activation", "config": {"name": "mish_16", "trainable": true, "dtype": "float32", "activation": {"class_name": "Mish", "config": {"name": "mish", "trainable": true, "dtype": "float32", "activation": "mish"}, "shared_object_id": 9}}, "name": "mish_16", "inbound_nodes": [[["BN_16", 0, 0, {}]]]}, {"class_name": "Add", "config": {"name": "add_17", "trainable": true, "dtype": "float32"}, "name": "add_17", "inbound_nodes": [[["mish_14", 0, 0, {}], ["mish_16", 0, 0, {}]]]}, {"class_name": "Conv2D", "config": {"name": "convn_18", "trainable": true, "dtype": "float32", "filters": 64, "kernel_size": [1, 1], "strides": [1, 1], "padding": "same", "data_format": "channels_last", "dilation_rate": [1, 1], "groups": 1, "activation": "linear", "use_bias": true, "kernel_initializer": {"class_name": "GlorotUniform", "config": {"seed": null}}, "bias_initializer": {"class_name": "Zeros", "config": {}}, "kernel_regularizer": null, "bias_regularizer": null, "activity_regularizer": null, "kernel_constraint": null, "bias_constraint": null}, "name": "convn_18", "inbound_nodes": [[["add_17", 0, 0, {}]]]}, {"class_name": "BatchNormalization", "config": {"name": "BN_18", "trainable": true, "dtype": "float32", "axis": [3], "momentum": 0.99, "epsilon": 0.001, "center": true, "scale": true, "beta_initializer": {"class_name": "Zeros", "config": {}}, "gamma_initializer": {"class_name": "Ones", "config": {}}, "moving_mean_initializer": {"class_name": "Zeros", "config": {}}, "moving_variance_initializer": {"class_name": "Ones", "config": {}}, "beta_regularizer": null, "gamma_regularizer": null, "beta_constraint": null, "gamma_constraint": null}, "name": "BN_18", "inbound_nodes": [[["convn_18", 0, 0, {}]]]}, {"class_name": "Activation", "config": {"name": "mish_18", "trainable": true, "dtype": "float32", "activation": {"class_name": "Mish", "config": {"name": "mish", "trainable": true, "dtype": "float32", "activation": "mish"}, "shared_object_id": 9}}, "name": "mish_18", "inbound_nodes": [[["BN_18", 0, 0, {}]]]}, {"class_name": "Conv2D", "config": {"name": "convn_19", "trainable": true, "dtype": "float32", "filters": 64, "kernel_size": [3, 3], "strides": [1, 1], "padding": "same", "data_format": "channels_last", "dilation_rate": [1, 1], "groups": 1, "activation": "linear", "use_bias": true, "kernel_initializer": {"class_name": "GlorotUniform", "config": {"seed": null}}, "bias_initializer": {"class_name": "Zeros", "config": {}}, "kernel_regularizer": null, "bias_regularizer": null, "activity_regularizer": null, "kernel_constraint": null, "bias_constraint": null}, "name": "convn_19", "inbound_nodes": [[["mish_18", 0, 0, {}]]]}, {"class_name": "BatchNormalization", "config": {"name": "BN_19", "trainable": true, "dtype": "float32", "axis": [3], "momentum": 0.99, "epsilon": 0.001, "center": true, "scale": true, "beta_initializer": {"class_name": "Zeros", "config": {}}, "gamma_initializer": {"class_name": "Ones", "config": {}}, "moving_mean_initializer": {"class_name": "Zeros", "config": {}}, "moving_variance_initializer": {"class_name": "Ones", "config": {}}, "beta_regularizer": null, "gamma_regularizer": null, "beta_constraint": null, "gamma_constraint": null}, "name": "BN_19", "inbound_nodes": [[["convn_19", 0, 0, {}]]]}, {"class_name": "Activation", "config": {"name": "mish_19", "trainable": true, "dtype": "float32", "activation": {"class_name": "Mish", "config": {"name": "mish", "trainable": true, "dtype": "float32", "activation": "mish"}, "shared_object_id": 9}}, "name": "mish_19", "inbound_nodes": [[["BN_19", 0, 0, {}]]]}, {"class_name": "Add", "config": {"name": "add_20", "trainable": true, "dtype": "float32"}, "name": "add_20", "inbound_nodes": [[["add_17", 0, 0, {}], ["mish_19", 0, 0, {}]]]}, {"class_name": "Conv2D", "config": {"name": "convn_21", "trainable": true, "dtype": "float32", "filters": 64, "kernel_size": [1, 1], "strides": [1, 1], "padding": "same", "data_format": "channels_last", "dilation_rate": [1, 1], "groups": 1, "activation": "linear", "use_bias": true, "kernel_initializer": {"class_name": "GlorotUniform", "config": {"seed": null}}, "bias_initializer": {"class_name": "Zeros", "config": {}}, "kernel_regularizer": null, "bias_regularizer": null, "activity_regularizer": null, "kernel_constraint": null, "bias_constraint": null}, "name": "convn_21", "inbound_nodes": [[["add_20", 0, 0, {}]]]}, {"class_name": "Conv2D", "config": {"name": "convn_12", "trainable": true, "dtype": "float32", "filters": 64, "kernel_size": [1, 1], "strides": [1, 1], "padding": "same", "data_format": "channels_last", "dilation_rate": [1, 1], "groups": 1, "activation": "linear", "use_bias": true, "kernel_initializer": {"class_name": "GlorotUniform", "config": {"seed": null}}, "bias_initializer": {"class_name": "Zeros", "config": {}}, "kernel_regularizer": null, "bias_regularizer": null, "activity_regularizer": null, "kernel_constraint": null, "bias_constraint": null}, "name": "convn_12", "inbound_nodes": [[["mish_11", 0, 0, {}]]]}, {"class_name": "BatchNormalization", "config": {"name": "BN_21", "trainable": true, "dtype": "float32", "axis": [3], "momentum": 0.99, "epsilon": 0.001, "center": true, "scale": true, "beta_initializer": {"class_name": "Zeros", "config": {}}, "gamma_initializer": {"class_name": "Ones", "config": {}}, "moving_mean_initializer": {"class_name": "Zeros", "config": {}}, "moving_variance_initializer": {"class_name": "Ones", "config": {}}, "beta_regularizer": null, "gamma_regularizer": null, "beta_constraint": null, "gamma_constraint": null}, "name": "BN_21", "inbound_nodes": [[["convn_21", 0, 0, {}]]]}, {"class_name": "BatchNormalization", "config": {"name": "BN_12", "trainable": true, "dtype": "float32", "axis": [3], "momentum": 0.99, "epsilon": 0.001, "center": true, "scale": true, "beta_initializer": {"class_name": "Zeros", "config": {}}, "gamma_initializer": {"class_name": "Ones", "config": {}}, "moving_mean_initializer": {"class_name": "Zeros", "config": {}}, "moving_variance_initializer": {"class_name": "Ones", "config": {}}, "beta_regularizer": null, "gamma_regularizer": null, "beta_constraint": null, "gamma_constraint": null}, "name": "BN_12", "inbound_nodes": [[["convn_12", 0, 0, {}]]]}, {"class_name": "Activation", "config": {"name": "mish_21", "trainable": true, "dtype": "float32", "activation": {"class_name": "Mish", "config": {"name": "mish", "trainable": true, "dtype": "float32", "activation": "mish"}, "shared_object_id": 9}}, "name": "mish_21", "inbound_nodes": [[["BN_21", 0, 0, {}]]]}, {"class_name": "Activation", "config": {"name": "mish_12", "trainable": true, "dtype": "float32", "activation": {"class_name": "Mish", "config": {"name": "mish", "trainable": true, "dtype": "float32", "activation": "mish"}, "shared_object_id": 9}}, "name": "mish_12", "inbound_nodes": [[["BN_12", 0, 0, {}]]]}, {"class_name": "Concatenate", "config": {"name": "concat_22", "trainable": true, "dtype": "float32", "axis": -1}, "name": "concat_22", "inbound_nodes": [[["mish_21", 0, 0, {}], ["mish_12", 0, 0, {}]]]}, {"class_name": "Conv2D", "config": {"name": "convn_23", "trainable": true, "dtype": "float32", "filters": 128, "kernel_size": [1, 1], "strides": [1, 1], "padding": "same", "data_format": "channels_last", "dilation_rate": [1, 1], "groups": 1, "activation": "linear", "use_bias": true, "kernel_initializer": {"class_name": "GlorotUniform", "config": {"seed": null}}, "bias_initializer": {"class_name": "Zeros", "config": {}}, "kernel_regularizer": null, "bias_regularizer": null, "activity_regularizer": null, "kernel_constraint": null, "bias_constraint": null}, "name": "convn_23", "inbound_nodes": [[["concat_22", 0, 0, {}]]]}, {"class_name": "BatchNormalization", "config": {"name": "BN_23", "trainable": true, "dtype": "float32", "axis": [3], "momentum": 0.99, "epsilon": 0.001, "center": true, "scale": true, "beta_initializer": {"class_name": "Zeros", "config": {}}, "gamma_initializer": {"class_name": "Ones", "config": {}}, "moving_mean_initializer": {"class_name": "Zeros", "config": {}}, "moving_variance_initializer": {"class_name": "Ones", "config": {}}, "beta_regularizer": null, "gamma_regularizer": null, "beta_constraint": null, "gamma_constraint": null}, "name": "BN_23", "inbound_nodes": [[["convn_23", 0, 0, {}]]]}, {"class_name": "Activation", "config": {"name": "mish_23", "trainable": true, "dtype": "float32", "activation": {"class_name": "Mish", "config": {"name": "mish", "trainable": true, "dtype": "float32", "activation": "mish"}, "shared_object_id": 9}}, "name": "mish_23", "inbound_nodes": [[["BN_23", 0, 0, {}]]]}, {"class_name": "ZeroPadding2D", "config": {"name": "zerop_24", "trainable": true, "dtype": "float32", "padding": [[1, 0], [1, 0]], "data_format": "channels_last"}, "name": "zerop_24", "inbound_nodes": [[["mish_23", 0, 0, {}]]]}, {"class_name": "Conv2D", "config": {"name": "convn_24", "trainable": true, "dtype": "float32", "filters": 256, "kernel_size": [3, 3], "strides": [2, 2], "padding": "valid", "data_format": "channels_last", "dilation_rate": [1, 1], "groups": 1, "activation": "linear", "use_bias": true, "kernel_initializer": {"class_name": "GlorotUniform", "config": {"seed": null}}, "bias_initializer": {"class_name": "Zeros", "config": {}}, "kernel_regularizer": null, "bias_regularizer": null, "activity_regularizer": null, "kernel_constraint": null, "bias_constraint": null}, "name": "convn_24", "inbound_nodes": [[["zerop_24", 0, 0, {}]]]}, {"class_name": "BatchNormalization", "config": {"name": "BN_24", "trainable": true, "dtype": "float32", "axis": [3], "momentum": 0.99, "epsilon": 0.001, "center": true, "scale": true, "beta_initializer": {"class_name": "Zeros", "config": {}}, "gamma_initializer": {"class_name": "Ones", "config": {}}, "moving_mean_initializer": {"class_name": "Zeros", "config": {}}, "moving_variance_initializer": {"class_name": "Ones", "config": {}}, "beta_regularizer": null, "gamma_regularizer": null, "beta_constraint": null, "gamma_constraint": null}, "name": "BN_24", "inbound_nodes": [[["convn_24", 0, 0, {}]]]}, {"class_name": "Activation", "config": {"name": "mish_24", "trainable": true, "dtype": "float32", "activation": {"class_name": "Mish", "config": {"name": "mish", "trainable": true, "dtype": "float32", "activation": "mish"}, "shared_object_id": 9}}, "name": "mish_24", "inbound_nodes": [[["BN_24", 0, 0, {}]]]}, {"class_name": "Conv2D", "config": {"name": "convn_27", "trainable": true, "dtype": "float32", "filters": 128, "kernel_size": [1, 1], "strides": [1, 1], "padding": "same", "data_format": "channels_last", "dilation_rate": [1, 1], "groups": 1, "activation": "linear", "use_bias": true, "kernel_initializer": {"class_name": "GlorotUniform", "config": {"seed": null}}, "bias_initializer": {"class_name": "Zeros", "config": {}}, "kernel_regularizer": null, "bias_regularizer": null, "activity_regularizer": null, "kernel_constraint": null, "bias_constraint": null}, "name": "convn_27", "inbound_nodes": [[["mish_24", 0, 0, {}]]]}, {"class_name": "BatchNormalization", "config": {"name": "BN_27", "trainable": true, "dtype": "float32", "axis": [3], "momentum": 0.99, "epsilon": 0.001, "center": true, "scale": true, "beta_initializer": {"class_name": "Zeros", "config": {}}, "gamma_initializer": {"class_name": "Ones", "config": {}}, "moving_mean_initializer": {"class_name": "Zeros", "config": {}}, "moving_variance_initializer": {"class_name": "Ones", "config": {}}, "beta_regularizer": null, "gamma_regularizer": null, "beta_constraint": null, "gamma_constraint": null}, "name": "BN_27", "inbound_nodes": [[["convn_27", 0, 0, {}]]]}, {"class_name": "Activation", "config": {"name": "mish_27", "trainable": true, "dtype": "float32", "activation": {"class_name": "Mish", "config": {"name": "mish", "trainable": true, "dtype": "float32", "activation": "mish"}, "shared_object_id": 9}}, "name": "mish_27", "inbound_nodes": [[["BN_27", 0, 0, {}]]]}, {"class_name": "Conv2D", "config": {"name": "convn_28", "trainable": true, "dtype": "float32", "filters": 128, "kernel_size": [1, 1], "strides": [1, 1], "padding": "same", "data_format": "channels_last", "dilation_rate": [1, 1], "groups": 1, "activation": "linear", "use_bias": true, "kernel_initializer": {"class_name": "GlorotUniform", "config": {"seed": null}}, "bias_initializer": {"class_name": "Zeros", "config": {}}, "kernel_regularizer": null, "bias_regularizer": null, "activity_regularizer": null, "kernel_constraint": null, "bias_constraint": null}, "name": "convn_28", "inbound_nodes": [[["mish_27", 0, 0, {}]]]}, {"class_name": "BatchNormalization", "config": {"name": "BN_28", "trainable": true, "dtype": "float32", "axis": [3], "momentum": 0.99, "epsilon": 0.001, "center": true, "scale": true, "beta_initializer": {"class_name": "Zeros", "config": {}}, "gamma_initializer": {"class_name": "Ones", "config": {}}, "moving_mean_initializer": {"class_name": "Zeros", "config": {}}, "moving_variance_initializer": {"class_name": "Ones", "config": {}}, "beta_regularizer": null, "gamma_regularizer": null, "beta_constraint": null, "gamma_constraint": null}, "name": "BN_28", "inbound_nodes": [[["convn_28", 0, 0, {}]]]}, {"class_name": "Activation", "config": {"name": "mish_28", "trainable": true, "dtype": "float32", "activation": {"class_name": "Mish", "config": {"name": "mish", "trainable": true, "dtype": "float32", "activation": "mish"}, "shared_object_id": 9}}, "name": "mish_28", "inbound_nodes": [[["BN_28", 0, 0, {}]]]}, {"class_name": "Conv2D", "config": {"name": "convn_29", "trainable": true, "dtype": "float32", "filters": 128, "kernel_size": [3, 3], "strides": [1, 1], "padding": "same", "data_format": "channels_last", "dilation_rate": [1, 1], "groups": 1, "activation": "linear", "use_bias": true, "kernel_initializer": {"class_name": "GlorotUniform", "config": {"seed": null}}, "bias_initializer": {"class_name": "Zeros", "config": {}}, "kernel_regularizer": null, "bias_regularizer": null, "activity_regularizer": null, "kernel_constraint": null, "bias_constraint": null}, "name": "convn_29", "inbound_nodes": [[["mish_28", 0, 0, {}]]]}, {"class_name": "BatchNormalization", "config": {"name": "BN_29", "trainable": true, "dtype": "float32", "axis": [3], "momentum": 0.99, "epsilon": 0.001, "center": true, "scale": true, "beta_initializer": {"class_name": "Zeros", "config": {}}, "gamma_initializer": {"class_name": "Ones", "config": {}}, "moving_mean_initializer": {"class_name": "Zeros", "config": {}}, "moving_variance_initializer": {"class_name": "Ones", "config": {}}, "beta_regularizer": null, "gamma_regularizer": null, "beta_constraint": null, "gamma_constraint": null}, "name": "BN_29", "inbound_nodes": [[["convn_29", 0, 0, {}]]]}, {"class_name": "Activation", "config": {"name": "mish_29", "trainable": true, "dtype": "float32", "activation": {"class_name": "Mish", "config": {"name": "mish", "trainable": true, "dtype": "float32", "activation": "mish"}, "shared_object_id": 9}}, "name": "mish_29", "inbound_nodes": [[["BN_29", 0, 0, {}]]]}, {"class_name": "Add", "config": {"name": "add_30", "trainable": true, "dtype": "float32"}, "name": "add_30", "inbound_nodes": [[["mish_27", 0, 0, {}], ["mish_29", 0, 0, {}]]]}, {"class_name": "Conv2D", "config": {"name": "convn_31", "trainable": true, "dtype": "float32", "filters": 128, "kernel_size": [1, 1], "strides": [1, 1], "padding": "same", "data_format": "channels_last", "dilation_rate": [1, 1], "groups": 1, "activation": "linear", "use_bias": true, "kernel_initializer": {"class_name": "GlorotUniform", "config": {"seed": null}}, "bias_initializer": {"class_name": "Zeros", "config": {}}, "kernel_regularizer": null, "bias_regularizer": null, "activity_regularizer": null, "kernel_constraint": null, "bias_constraint": null}, "name": "convn_31", "inbound_nodes": [[["add_30", 0, 0, {}]]]}, {"class_name": "BatchNormalization", "config": {"name": "BN_31", "trainable": true, "dtype": "float32", "axis": [3], "momentum": 0.99, "epsilon": 0.001, "center": true, "scale": true, "beta_initializer": {"class_name": "Zeros", "config": {}}, "gamma_initializer": {"class_name": "Ones", "config": {}}, "moving_mean_initializer": {"class_name": "Zeros", "config": {}}, "moving_variance_initializer": {"class_name": "Ones", "config": {}}, "beta_regularizer": null, "gamma_regularizer": null, "beta_constraint": null, "gamma_constraint": null}, "name": "BN_31", "inbound_nodes": [[["convn_31", 0, 0, {}]]]}, {"class_name": "Activation", "config": {"name": "mish_31", "trainable": true, "dtype": "float32", "activation": {"class_name": "Mish", "config": {"name": "mish", "trainable": true, "dtype": "float32", "activation": "mish"}, "shared_object_id": 9}}, "name": "mish_31", "inbound_nodes": [[["BN_31", 0, 0, {}]]]}, {"class_name": "Conv2D", "config": {"name": "convn_32", "trainable": true, "dtype": "float32", "filters": 128, "kernel_size": [3, 3], "strides": [1, 1], "padding": "same", "data_format": "channels_last", "dilation_rate": [1, 1], "groups": 1, "activation": "linear", "use_bias": true, "kernel_initializer": {"class_name": "GlorotUniform", "config": {"seed": null}}, "bias_initializer": {"class_name": "Zeros", "config": {}}, "kernel_regularizer": null, "bias_regularizer": null, "activity_regularizer": null, "kernel_constraint": null, "bias_constraint": null}, "name": "convn_32", "inbound_nodes": [[["mish_31", 0, 0, {}]]]}, {"class_name": "BatchNormalization", "config": {"name": "BN_32", "trainable": true, "dtype": "float32", "axis": [3], "momentum": 0.99, "epsilon": 0.001, "center": true, "scale": true, "beta_initializer": {"class_name": "Zeros", "config": {}}, "gamma_initializer": {"class_name": "Ones", "config": {}}, "moving_mean_initializer": {"class_name": "Zeros", "config": {}}, "moving_variance_initializer": {"class_name": "Ones", "config": {}}, "beta_regularizer": null, "gamma_regularizer": null, "beta_constraint": null, "gamma_constraint": null}, "name": "BN_32", "inbound_nodes": [[["convn_32", 0, 0, {}]]]}, {"class_name": "Activation", "config": {"name": "mish_32", "trainable": true, "dtype": "float32", "activation": {"class_name": "Mish", "config": {"name": "mish", "trainable": true, "dtype": "float32", "activation": "mish"}, "shared_object_id": 9}}, "name": "mish_32", "inbound_nodes": [[["BN_32", 0, 0, {}]]]}, {"class_name": "Add", "config": {"name": "add_33", "trainable": true, "dtype": "float32"}, "name": "add_33", "inbound_nodes": [[["add_30", 0, 0, {}], ["mish_32", 0, 0, {}]]]}, {"class_name": "Conv2D", "config": {"name": "convn_34", "trainable": true, "dtype": "float32", "filters": 128, "kernel_size": [1, 1], "strides": [1, 1], "padding": "same", "data_format": "channels_last", "dilation_rate": [1, 1], "groups": 1, "activation": "linear", "use_bias": true, "kernel_initializer": {"class_name": "GlorotUniform", "config": {"seed": null}}, "bias_initializer": {"class_name": "Zeros", "config": {}}, "kernel_regularizer": null, "bias_regularizer": null, "activity_regularizer": null, "kernel_constraint": null, "bias_constraint": null}, "name": "convn_34", "inbound_nodes": [[["add_33", 0, 0, {}]]]}, {"class_name": "BatchNormalization", "config": {"name": "BN_34", "trainable": true, "dtype": "float32", "axis": [3], "momentum": 0.99, "epsilon": 0.001, "center": true, "scale": true, "beta_initializer": {"class_name": "Zeros", "config": {}}, "gamma_initializer": {"class_name": "Ones", "config": {}}, "moving_mean_initializer": {"class_name": "Zeros", "config": {}}, "moving_variance_initializer": {"class_name": "Ones", "config": {}}, "beta_regularizer": null, "gamma_regularizer": null, "beta_constraint": null, "gamma_constraint": null}, "name": "BN_34", "inbound_nodes": [[["convn_34", 0, 0, {}]]]}, {"class_name": "Activation", "config": {"name": "mish_34", "trainable": true, "dtype": "float32", "activation": {"class_name": "Mish", "config": {"name": "mish", "trainable": true, "dtype": "float32", "activation": "mish"}, "shared_object_id": 9}}, "name": "mish_34", "inbound_nodes": [[["BN_34", 0, 0, {}]]]}, {"class_name": "Conv2D", "config": {"name": "convn_35", "trainable": true, "dtype": "float32", "filters": 128, "kernel_size": [3, 3], "strides": [1, 1], "padding": "same", "data_format": "channels_last", "dilation_rate": [1, 1], "groups": 1, "activation": "linear", "use_bias": true, "kernel_initializer": {"class_name": "GlorotUniform", "config": {"seed": null}}, "bias_initializer": {"class_name": "Zeros", "config": {}}, "kernel_regularizer": null, "bias_regularizer": null, "activity_regularizer": null, "kernel_constraint": null, "bias_constraint": null}, "name": "convn_35", "inbound_nodes": [[["mish_34", 0, 0, {}]]]}, {"class_name": "BatchNormalization", "config": {"name": "BN_35", "trainable": true, "dtype": "float32", "axis": [3], "momentum": 0.99, "epsilon": 0.001, "center": true, "scale": true, "beta_initializer": {"class_name": "Zeros", "config": {}}, "gamma_initializer": {"class_name": "Ones", "config": {}}, "moving_mean_initializer": {"class_name": "Zeros", "config": {}}, "moving_variance_initializer": {"class_name": "Ones", "config": {}}, "beta_regularizer": null, "gamma_regularizer": null, "beta_constraint": null, "gamma_constraint": null}, "name": "BN_35", "inbound_nodes": [[["convn_35", 0, 0, {}]]]}, {"class_name": "Activation", "config": {"name": "mish_35", "trainable": true, "dtype": "float32", "activation": {"class_name": "Mish", "config": {"name": "mish", "trainable": true, "dtype": "float32", "activation": "mish"}, "shared_object_id": 9}}, "name": "mish_35", "inbound_nodes": [[["BN_35", 0, 0, {}]]]}, {"class_name": "Add", "config": {"name": "add_36", "trainable": true, "dtype": "float32"}, "name": "add_36", "inbound_nodes": [[["add_33", 0, 0, {}], ["mish_35", 0, 0, {}]]]}, {"class_name": "Conv2D", "config": {"name": "convn_37", "trainable": true, "dtype": "float32", "filters": 128, "kernel_size": [1, 1], "strides": [1, 1], "padding": "same", "data_format": "channels_last", "dilation_rate": [1, 1], "groups": 1, "activation": "linear", "use_bias": true, "kernel_initializer": {"class_name": "GlorotUniform", "config": {"seed": null}}, "bias_initializer": {"class_name": "Zeros", "config": {}}, "kernel_regularizer": null, "bias_regularizer": null, "activity_regularizer": null, "kernel_constraint": null, "bias_constraint": null}, "name": "convn_37", "inbound_nodes": [[["add_36", 0, 0, {}]]]}, {"class_name": "BatchNormalization", "config": {"name": "BN_37", "trainable": true, "dtype": "float32", "axis": [3], "momentum": 0.99, "epsilon": 0.001, "center": true, "scale": true, "beta_initializer": {"class_name": "Zeros", "config": {}}, "gamma_initializer": {"class_name": "Ones", "config": {}}, "moving_mean_initializer": {"class_name": "Zeros", "config": {}}, "moving_variance_initializer": {"class_name": "Ones", "config": {}}, "beta_regularizer": null, "gamma_regularizer": null, "beta_constraint": null, "gamma_constraint": null}, "name": "BN_37", "inbound_nodes": [[["convn_37", 0, 0, {}]]]}, {"class_name": "Activation", "config": {"name": "mish_37", "trainable": true, "dtype": "float32", "activation": {"class_name": "Mish", "config": {"name": "mish", "trainable": true, "dtype": "float32", "activation": "mish"}, "shared_object_id": 9}}, "name": "mish_37", "inbound_nodes": [[["BN_37", 0, 0, {}]]]}, {"class_name": "Conv2D", "config": {"name": "convn_38", "trainable": true, "dtype": "float32", "filters": 128, "kernel_size": [3, 3], "strides": [1, 1], "padding": "same", "data_format": "channels_last", "dilation_rate": [1, 1], "groups": 1, "activation": "linear", "use_bias": true, "kernel_initializer": {"class_name": "GlorotUniform", "config": {"seed": null}}, "bias_initializer": {"class_name": "Zeros", "config": {}}, "kernel_regularizer": null, "bias_regularizer": null, "activity_regularizer": null, "kernel_constraint": null, "bias_constraint": null}, "name": "convn_38", "inbound_nodes": [[["mish_37", 0, 0, {}]]]}, {"class_name": "BatchNormalization", "config": {"name": "BN_38", "trainable": true, "dtype": "float32", "axis": [3], "momentum": 0.99, "epsilon": 0.001, "center": true, "scale": true, "beta_initializer": {"class_name": "Zeros", "config": {}}, "gamma_initializer": {"class_name": "Ones", "config": {}}, "moving_mean_initializer": {"class_name": "Zeros", "config": {}}, "moving_variance_initializer": {"class_name": "Ones", "config": {}}, "beta_regularizer": null, "gamma_regularizer": null, "beta_constraint": null, "gamma_constraint": null}, "name": "BN_38", "inbound_nodes": [[["convn_38", 0, 0, {}]]]}, {"class_name": "Activation", "config": {"name": "mish_38", "trainable": true, "dtype": "float32", "activation": {"class_name": "Mish", "config": {"name": "mish", "trainable": true, "dtype": "float32", "activation": "mish"}, "shared_object_id": 9}}, "name": "mish_38", "inbound_nodes": [[["BN_38", 0, 0, {}]]]}, {"class_name": "Add", "config": {"name": "add_39", "trainable": true, "dtype": "float32"}, "name": "add_39", "inbound_nodes": [[["add_36", 0, 0, {}], ["mish_38", 0, 0, {}]]]}, {"class_name": "Conv2D", "config": {"name": "convn_40", "trainable": true, "dtype": "float32", "filters": 128, "kernel_size": [1, 1], "strides": [1, 1], "padding": "same", "data_format": "channels_last", "dilation_rate": [1, 1], "groups": 1, "activation": "linear", "use_bias": true, "kernel_initializer": {"class_name": "GlorotUniform", "config": {"seed": null}}, "bias_initializer": {"class_name": "Zeros", "config": {}}, "kernel_regularizer": null, "bias_regularizer": null, "activity_regularizer": null, "kernel_constraint": null, "bias_constraint": null}, "name": "convn_40", "inbound_nodes": [[["add_39", 0, 0, {}]]]}, {"class_name": "BatchNormalization", "config": {"name": "BN_40", "trainable": true, "dtype": "float32", "axis": [3], "momentum": 0.99, "epsilon": 0.001, "center": true, "scale": true, "beta_initializer": {"class_name": "Zeros", "config": {}}, "gamma_initializer": {"class_name": "Ones", "config": {}}, "moving_mean_initializer": {"class_name": "Zeros", "config": {}}, "moving_variance_initializer": {"class_name": "Ones", "config": {}}, "beta_regularizer": null, "gamma_regularizer": null, "beta_constraint": null, "gamma_constraint": null}, "name": "BN_40", "inbound_nodes": [[["convn_40", 0, 0, {}]]]}, {"class_name": "Activation", "config": {"name": "mish_40", "trainable": true, "dtype": "float32", "activation": {"class_name": "Mish", "config": {"name": "mish", "trainable": true, "dtype": "float32", "activation": "mish"}, "shared_object_id": 9}}, "name": "mish_40", "inbound_nodes": [[["BN_40", 0, 0, {}]]]}, {"class_name": "Conv2D", "config": {"name": "convn_41", "trainable": true, "dtype": "float32", "filters": 128, "kernel_size": [3, 3], "strides": [1, 1], "padding": "same", "data_format": "channels_last", "dilation_rate": [1, 1], "groups": 1, "activation": "linear", "use_bias": true, "kernel_initializer": {"class_name": "GlorotUniform", "config": {"seed": null}}, "bias_initializer": {"class_name": "Zeros", "config": {}}, "kernel_regularizer": null, "bias_regularizer": null, "activity_regularizer": null, "kernel_constraint": null, "bias_constraint": null}, "name": "convn_41", "inbound_nodes": [[["mish_40", 0, 0, {}]]]}, {"class_name": "BatchNormalization", "config": {"name": "BN_41", "trainable": true, "dtype": "float32", "axis": [3], "momentum": 0.99, "epsilon": 0.001, "center": true, "scale": true, "beta_initializer": {"class_name": "Zeros", "config": {}}, "gamma_initializer": {"class_name": "Ones", "config": {}}, "moving_mean_initializer": {"class_name": "Zeros", "config": {}}, "moving_variance_initializer": {"class_name": "Ones", "config": {}}, "beta_regularizer": null, "gamma_regularizer": null, "beta_constraint": null, "gamma_constraint": null}, "name": "BN_41", "inbound_nodes": [[["convn_41", 0, 0, {}]]]}, {"class_name": "Activation", "config": {"name": "mish_41", "trainable": true, "dtype": "float32", "activation": {"class_name": "Mish", "config": {"name": "mish", "trainable": true, "dtype": "float32", "activation": "mish"}, "shared_object_id": 9}}, "name": "mish_41", "inbound_nodes": [[["BN_41", 0, 0, {}]]]}, {"class_name": "Add", "config": {"name": "add_42", "trainable": true, "dtype": "float32"}, "name": "add_42", "inbound_nodes": [[["add_39", 0, 0, {}], ["mish_41", 0, 0, {}]]]}, {"class_name": "Conv2D", "config": {"name": "convn_43", "trainable": true, "dtype": "float32", "filters": 128, "kernel_size": [1, 1], "strides": [1, 1], "padding": "same", "data_format": "channels_last", "dilation_rate": [1, 1], "groups": 1, "activation": "linear", "use_bias": true, "kernel_initializer": {"class_name": "GlorotUniform", "config": {"seed": null}}, "bias_initializer": {"class_name": "Zeros", "config": {}}, "kernel_regularizer": null, "bias_regularizer": null, "activity_regularizer": null, "kernel_constraint": null, "bias_constraint": null}, "name": "convn_43", "inbound_nodes": [[["add_42", 0, 0, {}]]]}, {"class_name": "BatchNormalization", "config": {"name": "BN_43", "trainable": true, "dtype": "float32", "axis": [3], "momentum": 0.99, "epsilon": 0.001, "center": true, "scale": true, "beta_initializer": {"class_name": "Zeros", "config": {}}, "gamma_initializer": {"class_name": "Ones", "config": {}}, "moving_mean_initializer": {"class_name": "Zeros", "config": {}}, "moving_variance_initializer": {"class_name": "Ones", "config": {}}, "beta_regularizer": null, "gamma_regularizer": null, "beta_constraint": null, "gamma_constraint": null}, "name": "BN_43", "inbound_nodes": [[["convn_43", 0, 0, {}]]]}, {"class_name": "Activation", "config": {"name": "mish_43", "trainable": true, "dtype": "float32", "activation": {"class_name": "Mish", "config": {"name": "mish", "trainable": true, "dtype": "float32", "activation": "mish"}, "shared_object_id": 9}}, "name": "mish_43", "inbound_nodes": [[["BN_43", 0, 0, {}]]]}, {"class_name": "Conv2D", "config": {"name": "convn_44", "trainable": true, "dtype": "float32", "filters": 128, "kernel_size": [3, 3], "strides": [1, 1], "padding": "same", "data_format": "channels_last", "dilation_rate": [1, 1], "groups": 1, "activation": "linear", "use_bias": true, "kernel_initializer": {"class_name": "GlorotUniform", "config": {"seed": null}}, "bias_initializer": {"class_name": "Zeros", "config": {}}, "kernel_regularizer": null, "bias_regularizer": null, "activity_regularizer": null, "kernel_constraint": null, "bias_constraint": null}, "name": "convn_44", "inbound_nodes": [[["mish_43", 0, 0, {}]]]}, {"class_name": "BatchNormalization", "config": {"name": "BN_44", "trainable": true, "dtype": "float32", "axis": [3], "momentum": 0.99, "epsilon": 0.001, "center": true, "scale": true, "beta_initializer": {"class_name": "Zeros", "config": {}}, "gamma_initializer": {"class_name": "Ones", "config": {}}, "moving_mean_initializer": {"class_name": "Zeros", "config": {}}, "moving_variance_initializer": {"class_name": "Ones", "config": {}}, "beta_regularizer": null, "gamma_regularizer": null, "beta_constraint": null, "gamma_constraint": null}, "name": "BN_44", "inbound_nodes": [[["convn_44", 0, 0, {}]]]}, {"class_name": "Activation", "config": {"name": "mish_44", "trainable": true, "dtype": "float32", "activation": {"class_name": "Mish", "config": {"name": "mish", "trainable": true, "dtype": "float32", "activation": "mish"}, "shared_object_id": 9}}, "name": "mish_44", "inbound_nodes": [[["BN_44", 0, 0, {}]]]}, {"class_name": "Add", "config": {"name": "add_45", "trainable": true, "dtype": "float32"}, "name": "add_45", "inbound_nodes": [[["add_42", 0, 0, {}], ["mish_44", 0, 0, {}]]]}, {"class_name": "Conv2D", "config": {"name": "convn_46", "trainable": true, "dtype": "float32", "filters": 128, "kernel_size": [1, 1], "strides": [1, 1], "padding": "same", "data_format": "channels_last", "dilation_rate": [1, 1], "groups": 1, "activation": "linear", "use_bias": true, "kernel_initializer": {"class_name": "GlorotUniform", "config": {"seed": null}}, "bias_initializer": {"class_name": "Zeros", "config": {}}, "kernel_regularizer": null, "bias_regularizer": null, "activity_regularizer": null, "kernel_constraint": null, "bias_constraint": null}, "name": "convn_46", "inbound_nodes": [[["add_45", 0, 0, {}]]]}, {"class_name": "BatchNormalization", "config": {"name": "BN_46", "trainable": true, "dtype": "float32", "axis": [3], "momentum": 0.99, "epsilon": 0.001, "center": true, "scale": true, "beta_initializer": {"class_name": "Zeros", "config": {}}, "gamma_initializer": {"class_name": "Ones", "config": {}}, "moving_mean_initializer": {"class_name": "Zeros", "config": {}}, "moving_variance_initializer": {"class_name": "Ones", "config": {}}, "beta_regularizer": null, "gamma_regularizer": null, "beta_constraint": null, "gamma_constraint": null}, "name": "BN_46", "inbound_nodes": [[["convn_46", 0, 0, {}]]]}, {"class_name": "Activation", "config": {"name": "mish_46", "trainable": true, "dtype": "float32", "activation": {"class_name": "Mish", "config": {"name": "mish", "trainable": true, "dtype": "float32", "activation": "mish"}, "shared_object_id": 9}}, "name": "mish_46", "inbound_nodes": [[["BN_46", 0, 0, {}]]]}, {"class_name": "Conv2D", "config": {"name": "convn_47", "trainable": true, "dtype": "float32", "filters": 128, "kernel_size": [3, 3], "strides": [1, 1], "padding": "same", "data_format": "channels_last", "dilation_rate": [1, 1], "groups": 1, "activation": "linear", "use_bias": true, "kernel_initializer": {"class_name": "GlorotUniform", "config": {"seed": null}}, "bias_initializer": {"class_name": "Zeros", "config": {}}, "kernel_regularizer": null, "bias_regularizer": null, "activity_regularizer": null, "kernel_constraint": null, "bias_constraint": null}, "name": "convn_47", "inbound_nodes": [[["mish_46", 0, 0, {}]]]}, {"class_name": "BatchNormalization", "config": {"name": "BN_47", "trainable": true, "dtype": "float32", "axis": [3], "momentum": 0.99, "epsilon": 0.001, "center": true, "scale": true, "beta_initializer": {"class_name": "Zeros", "config": {}}, "gamma_initializer": {"class_name": "Ones", "config": {}}, "moving_mean_initializer": {"class_name": "Zeros", "config": {}}, "moving_variance_initializer": {"class_name": "Ones", "config": {}}, "beta_regularizer": null, "gamma_regularizer": null, "beta_constraint": null, "gamma_constraint": null}, "name": "BN_47", "inbound_nodes": [[["convn_47", 0, 0, {}]]]}, {"class_name": "Activation", "config": {"name": "mish_47", "trainable": true, "dtype": "float32", "activation": {"class_name": "Mish", "config": {"name": "mish", "trainable": true, "dtype": "float32", "activation": "mish"}, "shared_object_id": 9}}, "name": "mish_47", "inbound_nodes": [[["BN_47", 0, 0, {}]]]}, {"class_name": "Add", "config": {"name": "add_48", "trainable": true, "dtype": "float32"}, "name": "add_48", "inbound_nodes": [[["add_45", 0, 0, {}], ["mish_47", 0, 0, {}]]]}, {"class_name": "Conv2D", "config": {"name": "convn_49", "trainable": true, "dtype": "float32", "filters": 128, "kernel_size": [1, 1], "strides": [1, 1], "padding": "same", "data_format": "channels_last", "dilation_rate": [1, 1], "groups": 1, "activation": "linear", "use_bias": true, "kernel_initializer": {"class_name": "GlorotUniform", "config": {"seed": null}}, "bias_initializer": {"class_name": "Zeros", "config": {}}, "kernel_regularizer": null, "bias_regularizer": null, "activity_regularizer": null, "kernel_constraint": null, "bias_constraint": null}, "name": "convn_49", "inbound_nodes": [[["add_48", 0, 0, {}]]]}, {"class_name": "BatchNormalization", "config": {"name": "BN_49", "trainable": true, "dtype": "float32", "axis": [3], "momentum": 0.99, "epsilon": 0.001, "center": true, "scale": true, "beta_initializer": {"class_name": "Zeros", "config": {}}, "gamma_initializer": {"class_name": "Ones", "config": {}}, "moving_mean_initializer": {"class_name": "Zeros", "config": {}}, "moving_variance_initializer": {"class_name": "Ones", "config": {}}, "beta_regularizer": null, "gamma_regularizer": null, "beta_constraint": null, "gamma_constraint": null}, "name": "BN_49", "inbound_nodes": [[["convn_49", 0, 0, {}]]]}, {"class_name": "Activation", "config": {"name": "mish_49", "trainable": true, "dtype": "float32", "activation": {"class_name": "Mish", "config": {"name": "mish", "trainable": true, "dtype": "float32", "activation": "mish"}, "shared_object_id": 9}}, "name": "mish_49", "inbound_nodes": [[["BN_49", 0, 0, {}]]]}, {"class_name": "Conv2D", "config": {"name": "convn_50", "trainable": true, "dtype": "float32", "filters": 128, "kernel_size": [3, 3], "strides": [1, 1], "padding": "same", "data_format": "channels_last", "dilation_rate": [1, 1], "groups": 1, "activation": "linear", "use_bias": true, "kernel_initializer": {"class_name": "GlorotUniform", "config": {"seed": null}}, "bias_initializer": {"class_name": "Zeros", "config": {}}, "kernel_regularizer": null, "bias_regularizer": null, "activity_regularizer": null, "kernel_constraint": null, "bias_constraint": null}, "name": "convn_50", "inbound_nodes": [[["mish_49", 0, 0, {}]]]}, {"class_name": "BatchNormalization", "config": {"name": "BN_50", "trainable": true, "dtype": "float32", "axis": [3], "momentum": 0.99, "epsilon": 0.001, "center": true, "scale": true, "beta_initializer": {"class_name": "Zeros", "config": {}}, "gamma_initializer": {"class_name": "Ones", "config": {}}, "moving_mean_initializer": {"class_name": "Zeros", "config": {}}, "moving_variance_initializer": {"class_name": "Ones", "config": {}}, "beta_regularizer": null, "gamma_regularizer": null, "beta_constraint": null, "gamma_constraint": null}, "name": "BN_50", "inbound_nodes": [[["convn_50", 0, 0, {}]]]}, {"class_name": "Activation", "config": {"name": "mish_50", "trainable": true, "dtype": "float32", "activation": {"class_name": "Mish", "config": {"name": "mish", "trainable": true, "dtype": "float32", "activation": "mish"}, "shared_object_id": 9}}, "name": "mish_50", "inbound_nodes": [[["BN_50", 0, 0, {}]]]}, {"class_name": "Add", "config": {"name": "add_51", "trainable": true, "dtype": "float32"}, "name": "add_51", "inbound_nodes": [[["add_48", 0, 0, {}], ["mish_50", 0, 0, {}]]]}, {"class_name": "Conv2D", "config": {"name": "convn_52", "trainable": true, "dtype": "float32", "filters": 128, "kernel_size": [1, 1], "strides": [1, 1], "padding": "same", "data_format": "channels_last", "dilation_rate": [1, 1], "groups": 1, "activation": "linear", "use_bias": true, "kernel_initializer": {"class_name": "GlorotUniform", "config": {"seed": null}}, "bias_initializer": {"class_name": "Zeros", "config": {}}, "kernel_regularizer": null, "bias_regularizer": null, "activity_regularizer": null, "kernel_constraint": null, "bias_constraint": null}, "name": "convn_52", "inbound_nodes": [[["add_51", 0, 0, {}]]]}, {"class_name": "Conv2D", "config": {"name": "convn_25", "trainable": true, "dtype": "float32", "filters": 128, "kernel_size": [1, 1], "strides": [1, 1], "padding": "same", "data_format": "channels_last", "dilation_rate": [1, 1], "groups": 1, "activation": "linear", "use_bias": true, "kernel_initializer": {"class_name": "GlorotUniform", "config": {"seed": null}}, "bias_initializer": {"class_name": "Zeros", "config": {}}, "kernel_regularizer": null, "bias_regularizer": null, "activity_regularizer": null, "kernel_constraint": null, "bias_constraint": null}, "name": "convn_25", "inbound_nodes": [[["mish_24", 0, 0, {}]]]}, {"class_name": "BatchNormalization", "config": {"name": "BN_52", "trainable": true, "dtype": "float32", "axis": [3], "momentum": 0.99, "epsilon": 0.001, "center": true, "scale": true, "beta_initializer": {"class_name": "Zeros", "config": {}}, "gamma_initializer": {"class_name": "Ones", "config": {}}, "moving_mean_initializer": {"class_name": "Zeros", "config": {}}, "moving_variance_initializer": {"class_name": "Ones", "config": {}}, "beta_regularizer": null, "gamma_regularizer": null, "beta_constraint": null, "gamma_constraint": null}, "name": "BN_52", "inbound_nodes": [[["convn_52", 0, 0, {}]]]}, {"class_name": "BatchNormalization", "config": {"name": "BN_25", "trainable": true, "dtype": "float32", "axis": [3], "momentum": 0.99, "epsilon": 0.001, "center": true, "scale": true, "beta_initializer": {"class_name": "Zeros", "config": {}}, "gamma_initializer": {"class_name": "Ones", "config": {}}, "moving_mean_initializer": {"class_name": "Zeros", "config": {}}, "moving_variance_initializer": {"class_name": "Ones", "config": {}}, "beta_regularizer": null, "gamma_regularizer": null, "beta_constraint": null, "gamma_constraint": null}, "name": "BN_25", "inbound_nodes": [[["convn_25", 0, 0, {}]]]}, {"class_name": "Activation", "config": {"name": "mish_52", "trainable": true, "dtype": "float32", "activation": {"class_name": "Mish", "config": {"name": "mish", "trainable": true, "dtype": "float32", "activation": "mish"}, "shared_object_id": 9}}, "name": "mish_52", "inbound_nodes": [[["BN_52", 0, 0, {}]]]}, {"class_name": "Activation", "config": {"name": "mish_25", "trainable": true, "dtype": "float32", "activation": {"class_name": "Mish", "config": {"name": "mish", "trainable": true, "dtype": "float32", "activation": "mish"}, "shared_object_id": 9}}, "name": "mish_25", "inbound_nodes": [[["BN_25", 0, 0, {}]]]}, {"class_name": "Concatenate", "config": {"name": "concat_53", "trainable": true, "dtype": "float32", "axis": -1}, "name": "concat_53", "inbound_nodes": [[["mish_52", 0, 0, {}], ["mish_25", 0, 0, {}]]]}, {"class_name": "Conv2D", "config": {"name": "convn_54", "trainable": true, "dtype": "float32", "filters": 256, "kernel_size": [1, 1], "strides": [1, 1], "padding": "same", "data_format": "channels_last", "dilation_rate": [1, 1], "groups": 1, "activation": "linear", "use_bias": true, "kernel_initializer": {"class_name": "GlorotUniform", "config": {"seed": null}}, "bias_initializer": {"class_name": "Zeros", "config": {}}, "kernel_regularizer": null, "bias_regularizer": null, "activity_regularizer": null, "kernel_constraint": null, "bias_constraint": null}, "name": "convn_54", "inbound_nodes": [[["concat_53", 0, 0, {}]]]}, {"class_name": "BatchNormalization", "config": {"name": "BN_54", "trainable": true, "dtype": "float32", "axis": [3], "momentum": 0.99, "epsilon": 0.001, "center": true, "scale": true, "beta_initializer": {"class_name": "Zeros", "config": {}}, "gamma_initializer": {"class_name": "Ones", "config": {}}, "moving_mean_initializer": {"class_name": "Zeros", "config": {}}, "moving_variance_initializer": {"class_name": "Ones", "config": {}}, "beta_regularizer": null, "gamma_regularizer": null, "beta_constraint": null, "gamma_constraint": null}, "name": "BN_54", "inbound_nodes": [[["convn_54", 0, 0, {}]]]}, {"class_name": "Activation", "config": {"name": "mish_54", "trainable": true, "dtype": "float32", "activation": {"class_name": "Mish", "config": {"name": "mish", "trainable": true, "dtype": "float32", "activation": "mish"}, "shared_object_id": 9}}, "name": "mish_54", "inbound_nodes": [[["BN_54", 0, 0, {}]]]}, {"class_name": "ZeroPadding2D", "config": {"name": "zerop_55", "trainable": true, "dtype": "float32", "padding": [[1, 0], [1, 0]], "data_format": "channels_last"}, "name": "zerop_55", "inbound_nodes": [[["mish_54", 0, 0, {}]]]}, {"class_name": "Conv2D", "config": {"name": "convn_55", "trainable": true, "dtype": "float32", "filters": 512, "kernel_size": [3, 3], "strides": [2, 2], "padding": "valid", "data_format": "channels_last", "dilation_rate": [1, 1], "groups": 1, "activation": "linear", "use_bias": true, "kernel_initializer": {"class_name": "GlorotUniform", "config": {"seed": null}}, "bias_initializer": {"class_name": "Zeros", "config": {}}, "kernel_regularizer": null, "bias_regularizer": null, "activity_regularizer": null, "kernel_constraint": null, "bias_constraint": null}, "name": "convn_55", "inbound_nodes": [[["zerop_55", 0, 0, {}]]]}, {"class_name": "BatchNormalization", "config": {"name": "BN_55", "trainable": true, "dtype": "float32", "axis": [3], "momentum": 0.99, "epsilon": 0.001, "center": true, "scale": true, "beta_initializer": {"class_name": "Zeros", "config": {}}, "gamma_initializer": {"class_name": "Ones", "config": {}}, "moving_mean_initializer": {"class_name": "Zeros", "config": {}}, "moving_variance_initializer": {"class_name": "Ones", "config": {}}, "beta_regularizer": null, "gamma_regularizer": null, "beta_constraint": null, "gamma_constraint": null}, "name": "BN_55", "inbound_nodes": [[["convn_55", 0, 0, {}]]]}, {"class_name": "Activation", "config": {"name": "mish_55", "trainable": true, "dtype": "float32", "activation": {"class_name": "Mish", "config": {"name": "mish", "trainable": true, "dtype": "float32", "activation": "mish"}, "shared_object_id": 9}}, "name": "mish_55", "inbound_nodes": [[["BN_55", 0, 0, {}]]]}, {"class_name": "Conv2D", "config": {"name": "convn_58", "trainable": true, "dtype": "float32", "filters": 256, "kernel_size": [1, 1], "strides": [1, 1], "padding": "same", "data_format": "channels_last", "dilation_rate": [1, 1], "groups": 1, "activation": "linear", "use_bias": true, "kernel_initializer": {"class_name": "GlorotUniform", "config": {"seed": null}}, "bias_initializer": {"class_name": "Zeros", "config": {}}, "kernel_regularizer": null, "bias_regularizer": null, "activity_regularizer": null, "kernel_constraint": null, "bias_constraint": null}, "name": "convn_58", "inbound_nodes": [[["mish_55", 0, 0, {}]]]}, {"class_name": "BatchNormalization", "config": {"name": "BN_58", "trainable": true, "dtype": "float32", "axis": [3], "momentum": 0.99, "epsilon": 0.001, "center": true, "scale": true, "beta_initializer": {"class_name": "Zeros", "config": {}}, "gamma_initializer": {"class_name": "Ones", "config": {}}, "moving_mean_initializer": {"class_name": "Zeros", "config": {}}, "moving_variance_initializer": {"class_name": "Ones", "config": {}}, "beta_regularizer": null, "gamma_regularizer": null, "beta_constraint": null, "gamma_constraint": null}, "name": "BN_58", "inbound_nodes": [[["convn_58", 0, 0, {}]]]}, {"class_name": "Activation", "config": {"name": "mish_58", "trainable": true, "dtype": "float32", "activation": {"class_name": "Mish", "config": {"name": "mish", "trainable": true, "dtype": "float32", "activation": "mish"}, "shared_object_id": 9}}, "name": "mish_58", "inbound_nodes": [[["BN_58", 0, 0, {}]]]}, {"class_name": "Conv2D", "config": {"name": "convn_59", "trainable": true, "dtype": "float32", "filters": 256, "kernel_size": [1, 1], "strides": [1, 1], "padding": "same", "data_format": "channels_last", "dilation_rate": [1, 1], "groups": 1, "activation": "linear", "use_bias": true, "kernel_initializer": {"class_name": "GlorotUniform", "config": {"seed": null}}, "bias_initializer": {"class_name": "Zeros", "config": {}}, "kernel_regularizer": null, "bias_regularizer": null, "activity_regularizer": null, "kernel_constraint": null, "bias_constraint": null}, "name": "convn_59", "inbound_nodes": [[["mish_58", 0, 0, {}]]]}, {"class_name": "BatchNormalization", "config": {"name": "BN_59", "trainable": true, "dtype": "float32", "axis": [3], "momentum": 0.99, "epsilon": 0.001, "center": true, "scale": true, "beta_initializer": {"class_name": "Zeros", "config": {}}, "gamma_initializer": {"class_name": "Ones", "config": {}}, "moving_mean_initializer": {"class_name": "Zeros", "config": {}}, "moving_variance_initializer": {"class_name": "Ones", "config": {}}, "beta_regularizer": null, "gamma_regularizer": null, "beta_constraint": null, "gamma_constraint": null}, "name": "BN_59", "inbound_nodes": [[["convn_59", 0, 0, {}]]]}, {"class_name": "Activation", "config": {"name": "mish_59", "trainable": true, "dtype": "float32", "activation": {"class_name": "Mish", "config": {"name": "mish", "trainable": true, "dtype": "float32", "activation": "mish"}, "shared_object_id": 9}}, "name": "mish_59", "inbound_nodes": [[["BN_59", 0, 0, {}]]]}, {"class_name": "Conv2D", "config": {"name": "convn_60", "trainable": true, "dtype": "float32", "filters": 256, "kernel_size": [3, 3], "strides": [1, 1], "padding": "same", "data_format": "channels_last", "dilation_rate": [1, 1], "groups": 1, "activation": "linear", "use_bias": true, "kernel_initializer": {"class_name": "GlorotUniform", "config": {"seed": null}}, "bias_initializer": {"class_name": "Zeros", "config": {}}, "kernel_regularizer": null, "bias_regularizer": null, "activity_regularizer": null, "kernel_constraint": null, "bias_constraint": null}, "name": "convn_60", "inbound_nodes": [[["mish_59", 0, 0, {}]]]}, {"class_name": "BatchNormalization", "config": {"name": "BN_60", "trainable": true, "dtype": "float32", "axis": [3], "momentum": 0.99, "epsilon": 0.001, "center": true, "scale": true, "beta_initializer": {"class_name": "Zeros", "config": {}}, "gamma_initializer": {"class_name": "Ones", "config": {}}, "moving_mean_initializer": {"class_name": "Zeros", "config": {}}, "moving_variance_initializer": {"class_name": "Ones", "config": {}}, "beta_regularizer": null, "gamma_regularizer": null, "beta_constraint": null, "gamma_constraint": null}, "name": "BN_60", "inbound_nodes": [[["convn_60", 0, 0, {}]]]}, {"class_name": "Activation", "config": {"name": "mish_60", "trainable": true, "dtype": "float32", "activation": {"class_name": "Mish", "config": {"name": "mish", "trainable": true, "dtype": "float32", "activation": "mish"}, "shared_object_id": 9}}, "name": "mish_60", "inbound_nodes": [[["BN_60", 0, 0, {}]]]}, {"class_name": "Add", "config": {"name": "add_61", "trainable": true, "dtype": "float32"}, "name": "add_61", "inbound_nodes": [[["mish_58", 0, 0, {}], ["mish_60", 0, 0, {}]]]}, {"class_name": "Conv2D", "config": {"name": "convn_62", "trainable": true, "dtype": "float32", "filters": 256, "kernel_size": [1, 1], "strides": [1, 1], "padding": "same", "data_format": "channels_last", "dilation_rate": [1, 1], "groups": 1, "activation": "linear", "use_bias": true, "kernel_initializer": {"class_name": "GlorotUniform", "config": {"seed": null}}, "bias_initializer": {"class_name": "Zeros", "config": {}}, "kernel_regularizer": null, "bias_regularizer": null, "activity_regularizer": null, "kernel_constraint": null, "bias_constraint": null}, "name": "convn_62", "inbound_nodes": [[["add_61", 0, 0, {}]]]}, {"class_name": "BatchNormalization", "config": {"name": "BN_62", "trainable": true, "dtype": "float32", "axis": [3], "momentum": 0.99, "epsilon": 0.001, "center": true, "scale": true, "beta_initializer": {"class_name": "Zeros", "config": {}}, "gamma_initializer": {"class_name": "Ones", "config": {}}, "moving_mean_initializer": {"class_name": "Zeros", "config": {}}, "moving_variance_initializer": {"class_name": "Ones", "config": {}}, "beta_regularizer": null, "gamma_regularizer": null, "beta_constraint": null, "gamma_constraint": null}, "name": "BN_62", "inbound_nodes": [[["convn_62", 0, 0, {}]]]}, {"class_name": "Activation", "config": {"name": "mish_62", "trainable": true, "dtype": "float32", "activation": {"class_name": "Mish", "config": {"name": "mish", "trainable": true, "dtype": "float32", "activation": "mish"}, "shared_object_id": 9}}, "name": "mish_62", "inbound_nodes": [[["BN_62", 0, 0, {}]]]}, {"class_name": "Conv2D", "config": {"name": "convn_63", "trainable": true, "dtype": "float32", "filters": 256, "kernel_size": [3, 3], "strides": [1, 1], "padding": "same", "data_format": "channels_last", "dilation_rate": [1, 1], "groups": 1, "activation": "linear", "use_bias": true, "kernel_initializer": {"class_name": "GlorotUniform", "config": {"seed": null}}, "bias_initializer": {"class_name": "Zeros", "config": {}}, "kernel_regularizer": null, "bias_regularizer": null, "activity_regularizer": null, "kernel_constraint": null, "bias_constraint": null}, "name": "convn_63", "inbound_nodes": [[["mish_62", 0, 0, {}]]]}, {"class_name": "BatchNormalization", "config": {"name": "BN_63", "trainable": true, "dtype": "float32", "axis": [3], "momentum": 0.99, "epsilon": 0.001, "center": true, "scale": true, "beta_initializer": {"class_name": "Zeros", "config": {}}, "gamma_initializer": {"class_name": "Ones", "config": {}}, "moving_mean_initializer": {"class_name": "Zeros", "config": {}}, "moving_variance_initializer": {"class_name": "Ones", "config": {}}, "beta_regularizer": null, "gamma_regularizer": null, "beta_constraint": null, "gamma_constraint": null}, "name": "BN_63", "inbound_nodes": [[["convn_63", 0, 0, {}]]]}, {"class_name": "Activation", "config": {"name": "mish_63", "trainable": true, "dtype": "float32", "activation": {"class_name": "Mish", "config": {"name": "mish", "trainable": true, "dtype": "float32", "activation": "mish"}, "shared_object_id": 9}}, "name": "mish_63", "inbound_nodes": [[["BN_63", 0, 0, {}]]]}, {"class_name": "Add", "config": {"name": "add_64", "trainable": true, "dtype": "float32"}, "name": "add_64", "inbound_nodes": [[["add_61", 0, 0, {}], ["mish_63", 0, 0, {}]]]}, {"class_name": "Conv2D", "config": {"name": "convn_65", "trainable": true, "dtype": "float32", "filters": 256, "kernel_size": [1, 1], "strides": [1, 1], "padding": "same", "data_format": "channels_last", "dilation_rate": [1, 1], "groups": 1, "activation": "linear", "use_bias": true, "kernel_initializer": {"class_name": "GlorotUniform", "config": {"seed": null}}, "bias_initializer": {"class_name": "Zeros", "config": {}}, "kernel_regularizer": null, "bias_regularizer": null, "activity_regularizer": null, "kernel_constraint": null, "bias_constraint": null}, "name": "convn_65", "inbound_nodes": [[["add_64", 0, 0, {}]]]}, {"class_name": "BatchNormalization", "config": {"name": "BN_65", "trainable": true, "dtype": "float32", "axis": [3], "momentum": 0.99, "epsilon": 0.001, "center": true, "scale": true, "beta_initializer": {"class_name": "Zeros", "config": {}}, "gamma_initializer": {"class_name": "Ones", "config": {}}, "moving_mean_initializer": {"class_name": "Zeros", "config": {}}, "moving_variance_initializer": {"class_name": "Ones", "config": {}}, "beta_regularizer": null, "gamma_regularizer": null, "beta_constraint": null, "gamma_constraint": null}, "name": "BN_65", "inbound_nodes": [[["convn_65", 0, 0, {}]]]}, {"class_name": "Activation", "config": {"name": "mish_65", "trainable": true, "dtype": "float32", "activation": {"class_name": "Mish", "config": {"name": "mish", "trainable": true, "dtype": "float32", "activation": "mish"}, "shared_object_id": 9}}, "name": "mish_65", "inbound_nodes": [[["BN_65", 0, 0, {}]]]}, {"class_name": "Conv2D", "config": {"name": "convn_66", "trainable": true, "dtype": "float32", "filters": 256, "kernel_size": [3, 3], "strides": [1, 1], "padding": "same", "data_format": "channels_last", "dilation_rate": [1, 1], "groups": 1, "activation": "linear", "use_bias": true, "kernel_initializer": {"class_name": "GlorotUniform", "config": {"seed": null}}, "bias_initializer": {"class_name": "Zeros", "config": {}}, "kernel_regularizer": null, "bias_regularizer": null, "activity_regularizer": null, "kernel_constraint": null, "bias_constraint": null}, "name": "convn_66", "inbound_nodes": [[["mish_65", 0, 0, {}]]]}, {"class_name": "BatchNormalization", "config": {"name": "BN_66", "trainable": true, "dtype": "float32", "axis": [3], "momentum": 0.99, "epsilon": 0.001, "center": true, "scale": true, "beta_initializer": {"class_name": "Zeros", "config": {}}, "gamma_initializer": {"class_name": "Ones", "config": {}}, "moving_mean_initializer": {"class_name": "Zeros", "config": {}}, "moving_variance_initializer": {"class_name": "Ones", "config": {}}, "beta_regularizer": null, "gamma_regularizer": null, "beta_constraint": null, "gamma_constraint": null}, "name": "BN_66", "inbound_nodes": [[["convn_66", 0, 0, {}]]]}, {"class_name": "Activation", "config": {"name": "mish_66", "trainable": true, "dtype": "float32", "activation": {"class_name": "Mish", "config": {"name": "mish", "trainable": true, "dtype": "float32", "activation": "mish"}, "shared_object_id": 9}}, "name": "mish_66", "inbound_nodes": [[["BN_66", 0, 0, {}]]]}, {"class_name": "Add", "config": {"name": "add_67", "trainable": true, "dtype": "float32"}, "name": "add_67", "inbound_nodes": [[["add_64", 0, 0, {}], ["mish_66", 0, 0, {}]]]}, {"class_name": "Conv2D", "config": {"name": "convn_68", "trainable": true, "dtype": "float32", "filters": 256, "kernel_size": [1, 1], "strides": [1, 1], "padding": "same", "data_format": "channels_last", "dilation_rate": [1, 1], "groups": 1, "activation": "linear", "use_bias": true, "kernel_initializer": {"class_name": "GlorotUniform", "config": {"seed": null}}, "bias_initializer": {"class_name": "Zeros", "config": {}}, "kernel_regularizer": null, "bias_regularizer": null, "activity_regularizer": null, "kernel_constraint": null, "bias_constraint": null}, "name": "convn_68", "inbound_nodes": [[["add_67", 0, 0, {}]]]}, {"class_name": "BatchNormalization", "config": {"name": "BN_68", "trainable": true, "dtype": "float32", "axis": [3], "momentum": 0.99, "epsilon": 0.001, "center": true, "scale": true, "beta_initializer": {"class_name": "Zeros", "config": {}}, "gamma_initializer": {"class_name": "Ones", "config": {}}, "moving_mean_initializer": {"class_name": "Zeros", "config": {}}, "moving_variance_initializer": {"class_name": "Ones", "config": {}}, "beta_regularizer": null, "gamma_regularizer": null, "beta_constraint": null, "gamma_constraint": null}, "name": "BN_68", "inbound_nodes": [[["convn_68", 0, 0, {}]]]}, {"class_name": "Activation", "config": {"name": "mish_68", "trainable": true, "dtype": "float32", "activation": {"class_name": "Mish", "config": {"name": "mish", "trainable": true, "dtype": "float32", "activation": "mish"}, "shared_object_id": 9}}, "name": "mish_68", "inbound_nodes": [[["BN_68", 0, 0, {}]]]}, {"class_name": "Conv2D", "config": {"name": "convn_69", "trainable": true, "dtype": "float32", "filters": 256, "kernel_size": [3, 3], "strides": [1, 1], "padding": "same", "data_format": "channels_last", "dilation_rate": [1, 1], "groups": 1, "activation": "linear", "use_bias": true, "kernel_initializer": {"class_name": "GlorotUniform", "config": {"seed": null}}, "bias_initializer": {"class_name": "Zeros", "config": {}}, "kernel_regularizer": null, "bias_regularizer": null, "activity_regularizer": null, "kernel_constraint": null, "bias_constraint": null}, "name": "convn_69", "inbound_nodes": [[["mish_68", 0, 0, {}]]]}, {"class_name": "BatchNormalization", "config": {"name": "BN_69", "trainable": true, "dtype": "float32", "axis": [3], "momentum": 0.99, "epsilon": 0.001, "center": true, "scale": true, "beta_initializer": {"class_name": "Zeros", "config": {}}, "gamma_initializer": {"class_name": "Ones", "config": {}}, "moving_mean_initializer": {"class_name": "Zeros", "config": {}}, "moving_variance_initializer": {"class_name": "Ones", "config": {}}, "beta_regularizer": null, "gamma_regularizer": null, "beta_constraint": null, "gamma_constraint": null}, "name": "BN_69", "inbound_nodes": [[["convn_69", 0, 0, {}]]]}, {"class_name": "Activation", "config": {"name": "mish_69", "trainable": true, "dtype": "float32", "activation": {"class_name": "Mish", "config": {"name": "mish", "trainable": true, "dtype": "float32", "activation": "mish"}, "shared_object_id": 9}}, "name": "mish_69", "inbound_nodes": [[["BN_69", 0, 0, {}]]]}, {"class_name": "Add", "config": {"name": "add_70", "trainable": true, "dtype": "float32"}, "name": "add_70", "inbound_nodes": [[["add_67", 0, 0, {}], ["mish_69", 0, 0, {}]]]}, {"class_name": "Conv2D", "config": {"name": "convn_71", "trainable": true, "dtype": "float32", "filters": 256, "kernel_size": [1, 1], "strides": [1, 1], "padding": "same", "data_format": "channels_last", "dilation_rate": [1, 1], "groups": 1, "activation": "linear", "use_bias": true, "kernel_initializer": {"class_name": "GlorotUniform", "config": {"seed": null}}, "bias_initializer": {"class_name": "Zeros", "config": {}}, "kernel_regularizer": null, "bias_regularizer": null, "activity_regularizer": null, "kernel_constraint": null, "bias_constraint": null}, "name": "convn_71", "inbound_nodes": [[["add_70", 0, 0, {}]]]}, {"class_name": "BatchNormalization", "config": {"name": "BN_71", "trainable": true, "dtype": "float32", "axis": [3], "momentum": 0.99, "epsilon": 0.001, "center": true, "scale": true, "beta_initializer": {"class_name": "Zeros", "config": {}}, "gamma_initializer": {"class_name": "Ones", "config": {}}, "moving_mean_initializer": {"class_name": "Zeros", "config": {}}, "moving_variance_initializer": {"class_name": "Ones", "config": {}}, "beta_regularizer": null, "gamma_regularizer": null, "beta_constraint": null, "gamma_constraint": null}, "name": "BN_71", "inbound_nodes": [[["convn_71", 0, 0, {}]]]}, {"class_name": "Activation", "config": {"name": "mish_71", "trainable": true, "dtype": "float32", "activation": {"class_name": "Mish", "config": {"name": "mish", "trainable": true, "dtype": "float32", "activation": "mish"}, "shared_object_id": 9}}, "name": "mish_71", "inbound_nodes": [[["BN_71", 0, 0, {}]]]}, {"class_name": "Conv2D", "config": {"name": "convn_72", "trainable": true, "dtype": "float32", "filters": 256, "kernel_size": [3, 3], "strides": [1, 1], "padding": "same", "data_format": "channels_last", "dilation_rate": [1, 1], "groups": 1, "activation": "linear", "use_bias": true, "kernel_initializer": {"class_name": "GlorotUniform", "config": {"seed": null}}, "bias_initializer": {"class_name": "Zeros", "config": {}}, "kernel_regularizer": null, "bias_regularizer": null, "activity_regularizer": null, "kernel_constraint": null, "bias_constraint": null}, "name": "convn_72", "inbound_nodes": [[["mish_71", 0, 0, {}]]]}, {"class_name": "BatchNormalization", "config": {"name": "BN_72", "trainable": true, "dtype": "float32", "axis": [3], "momentum": 0.99, "epsilon": 0.001, "center": true, "scale": true, "beta_initializer": {"class_name": "Zeros", "config": {}}, "gamma_initializer": {"class_name": "Ones", "config": {}}, "moving_mean_initializer": {"class_name": "Zeros", "config": {}}, "moving_variance_initializer": {"class_name": "Ones", "config": {}}, "beta_regularizer": null, "gamma_regularizer": null, "beta_constraint": null, "gamma_constraint": null}, "name": "BN_72", "inbound_nodes": [[["convn_72", 0, 0, {}]]]}, {"class_name": "Activation", "config": {"name": "mish_72", "trainable": true, "dtype": "float32", "activation": {"class_name": "Mish", "config": {"name": "mish", "trainable": true, "dtype": "float32", "activation": "mish"}, "shared_object_id": 9}}, "name": "mish_72", "inbound_nodes": [[["BN_72", 0, 0, {}]]]}, {"class_name": "Add", "config": {"name": "add_73", "trainable": true, "dtype": "float32"}, "name": "add_73", "inbound_nodes": [[["add_70", 0, 0, {}], ["mish_72", 0, 0, {}]]]}, {"class_name": "Conv2D", "config": {"name": "convn_74", "trainable": true, "dtype": "float32", "filters": 256, "kernel_size": [1, 1], "strides": [1, 1], "padding": "same", "data_format": "channels_last", "dilation_rate": [1, 1], "groups": 1, "activation": "linear", "use_bias": true, "kernel_initializer": {"class_name": "GlorotUniform", "config": {"seed": null}}, "bias_initializer": {"class_name": "Zeros", "config": {}}, "kernel_regularizer": null, "bias_regularizer": null, "activity_regularizer": null, "kernel_constraint": null, "bias_constraint": null}, "name": "convn_74", "inbound_nodes": [[["add_73", 0, 0, {}]]]}, {"class_name": "BatchNormalization", "config": {"name": "BN_74", "trainable": true, "dtype": "float32", "axis": [3], "momentum": 0.99, "epsilon": 0.001, "center": true, "scale": true, "beta_initializer": {"class_name": "Zeros", "config": {}}, "gamma_initializer": {"class_name": "Ones", "config": {}}, "moving_mean_initializer": {"class_name": "Zeros", "config": {}}, "moving_variance_initializer": {"class_name": "Ones", "config": {}}, "beta_regularizer": null, "gamma_regularizer": null, "beta_constraint": null, "gamma_constraint": null}, "name": "BN_74", "inbound_nodes": [[["convn_74", 0, 0, {}]]]}, {"class_name": "Activation", "config": {"name": "mish_74", "trainable": true, "dtype": "float32", "activation": {"class_name": "Mish", "config": {"name": "mish", "trainable": true, "dtype": "float32", "activation": "mish"}, "shared_object_id": 9}}, "name": "mish_74", "inbound_nodes": [[["BN_74", 0, 0, {}]]]}, {"class_name": "Conv2D", "config": {"name": "convn_75", "trainable": true, "dtype": "float32", "filters": 256, "kernel_size": [3, 3], "strides": [1, 1], "padding": "same", "data_format": "channels_last", "dilation_rate": [1, 1], "groups": 1, "activation": "linear", "use_bias": true, "kernel_initializer": {"class_name": "GlorotUniform", "config": {"seed": null}}, "bias_initializer": {"class_name": "Zeros", "config": {}}, "kernel_regularizer": null, "bias_regularizer": null, "activity_regularizer": null, "kernel_constraint": null, "bias_constraint": null}, "name": "convn_75", "inbound_nodes": [[["mish_74", 0, 0, {}]]]}, {"class_name": "BatchNormalization", "config": {"name": "BN_75", "trainable": true, "dtype": "float32", "axis": [3], "momentum": 0.99, "epsilon": 0.001, "center": true, "scale": true, "beta_initializer": {"class_name": "Zeros", "config": {}}, "gamma_initializer": {"class_name": "Ones", "config": {}}, "moving_mean_initializer": {"class_name": "Zeros", "config": {}}, "moving_variance_initializer": {"class_name": "Ones", "config": {}}, "beta_regularizer": null, "gamma_regularizer": null, "beta_constraint": null, "gamma_constraint": null}, "name": "BN_75", "inbound_nodes": [[["convn_75", 0, 0, {}]]]}, {"class_name": "Activation", "config": {"name": "mish_75", "trainable": true, "dtype": "float32", "activation": {"class_name": "Mish", "config": {"name": "mish", "trainable": true, "dtype": "float32", "activation": "mish"}, "shared_object_id": 9}}, "name": "mish_75", "inbound_nodes": [[["BN_75", 0, 0, {}]]]}, {"class_name": "Add", "config": {"name": "add_76", "trainable": true, "dtype": "float32"}, "name": "add_76", "inbound_nodes": [[["add_73", 0, 0, {}], ["mish_75", 0, 0, {}]]]}, {"class_name": "Conv2D", "config": {"name": "convn_77", "trainable": true, "dtype": "float32", "filters": 256, "kernel_size": [1, 1], "strides": [1, 1], "padding": "same", "data_format": "channels_last", "dilation_rate": [1, 1], "groups": 1, "activation": "linear", "use_bias": true, "kernel_initializer": {"class_name": "GlorotUniform", "config": {"seed": null}}, "bias_initializer": {"class_name": "Zeros", "config": {}}, "kernel_regularizer": null, "bias_regularizer": null, "activity_regularizer": null, "kernel_constraint": null, "bias_constraint": null}, "name": "convn_77", "inbound_nodes": [[["add_76", 0, 0, {}]]]}, {"class_name": "BatchNormalization", "config": {"name": "BN_77", "trainable": true, "dtype": "float32", "axis": [3], "momentum": 0.99, "epsilon": 0.001, "center": true, "scale": true, "beta_initializer": {"class_name": "Zeros", "config": {}}, "gamma_initializer": {"class_name": "Ones", "config": {}}, "moving_mean_initializer": {"class_name": "Zeros", "config": {}}, "moving_variance_initializer": {"class_name": "Ones", "config": {}}, "beta_regularizer": null, "gamma_regularizer": null, "beta_constraint": null, "gamma_constraint": null}, "name": "BN_77", "inbound_nodes": [[["convn_77", 0, 0, {}]]]}, {"class_name": "Activation", "config": {"name": "mish_77", "trainable": true, "dtype": "float32", "activation": {"class_name": "Mish", "config": {"name": "mish", "trainable": true, "dtype": "float32", "activation": "mish"}, "shared_object_id": 9}}, "name": "mish_77", "inbound_nodes": [[["BN_77", 0, 0, {}]]]}, {"class_name": "Conv2D", "config": {"name": "convn_78", "trainable": true, "dtype": "float32", "filters": 256, "kernel_size": [3, 3], "strides": [1, 1], "padding": "same", "data_format": "channels_last", "dilation_rate": [1, 1], "groups": 1, "activation": "linear", "use_bias": true, "kernel_initializer": {"class_name": "GlorotUniform", "config": {"seed": null}}, "bias_initializer": {"class_name": "Zeros", "config": {}}, "kernel_regularizer": null, "bias_regularizer": null, "activity_regularizer": null, "kernel_constraint": null, "bias_constraint": null}, "name": "convn_78", "inbound_nodes": [[["mish_77", 0, 0, {}]]]}, {"class_name": "BatchNormalization", "config": {"name": "BN_78", "trainable": true, "dtype": "float32", "axis": [3], "momentum": 0.99, "epsilon": 0.001, "center": true, "scale": true, "beta_initializer": {"class_name": "Zeros", "config": {}}, "gamma_initializer": {"class_name": "Ones", "config": {}}, "moving_mean_initializer": {"class_name": "Zeros", "config": {}}, "moving_variance_initializer": {"class_name": "Ones", "config": {}}, "beta_regularizer": null, "gamma_regularizer": null, "beta_constraint": null, "gamma_constraint": null}, "name": "BN_78", "inbound_nodes": [[["convn_78", 0, 0, {}]]]}, {"class_name": "Activation", "config": {"name": "mish_78", "trainable": true, "dtype": "float32", "activation": {"class_name": "Mish", "config": {"name": "mish", "trainable": true, "dtype": "float32", "activation": "mish"}, "shared_object_id": 9}}, "name": "mish_78", "inbound_nodes": [[["BN_78", 0, 0, {}]]]}, {"class_name": "Add", "config": {"name": "add_79", "trainable": true, "dtype": "float32"}, "name": "add_79", "inbound_nodes": [[["add_76", 0, 0, {}], ["mish_78", 0, 0, {}]]]}, {"class_name": "Conv2D", "config": {"name": "convn_80", "trainable": true, "dtype": "float32", "filters": 256, "kernel_size": [1, 1], "strides": [1, 1], "padding": "same", "data_format": "channels_last", "dilation_rate": [1, 1], "groups": 1, "activation": "linear", "use_bias": true, "kernel_initializer": {"class_name": "GlorotUniform", "config": {"seed": null}}, "bias_initializer": {"class_name": "Zeros", "config": {}}, "kernel_regularizer": null, "bias_regularizer": null, "activity_regularizer": null, "kernel_constraint": null, "bias_constraint": null}, "name": "convn_80", "inbound_nodes": [[["add_79", 0, 0, {}]]]}, {"class_name": "BatchNormalization", "config": {"name": "BN_80", "trainable": true, "dtype": "float32", "axis": [3], "momentum": 0.99, "epsilon": 0.001, "center": true, "scale": true, "beta_initializer": {"class_name": "Zeros", "config": {}}, "gamma_initializer": {"class_name": "Ones", "config": {}}, "moving_mean_initializer": {"class_name": "Zeros", "config": {}}, "moving_variance_initializer": {"class_name": "Ones", "config": {}}, "beta_regularizer": null, "gamma_regularizer": null, "beta_constraint": null, "gamma_constraint": null}, "name": "BN_80", "inbound_nodes": [[["convn_80", 0, 0, {}]]]}, {"class_name": "Activation", "config": {"name": "mish_80", "trainable": true, "dtype": "float32", "activation": {"class_name": "Mish", "config": {"name": "mish", "trainable": true, "dtype": "float32", "activation": "mish"}, "shared_object_id": 9}}, "name": "mish_80", "inbound_nodes": [[["BN_80", 0, 0, {}]]]}, {"class_name": "Conv2D", "config": {"name": "convn_81", "trainable": true, "dtype": "float32", "filters": 256, "kernel_size": [3, 3], "strides": [1, 1], "padding": "same", "data_format": "channels_last", "dilation_rate": [1, 1], "groups": 1, "activation": "linear", "use_bias": true, "kernel_initializer": {"class_name": "GlorotUniform", "config": {"seed": null}}, "bias_initializer": {"class_name": "Zeros", "config": {}}, "kernel_regularizer": null, "bias_regularizer": null, "activity_regularizer": null, "kernel_constraint": null, "bias_constraint": null}, "name": "convn_81", "inbound_nodes": [[["mish_80", 0, 0, {}]]]}, {"class_name": "BatchNormalization", "config": {"name": "BN_81", "trainable": true, "dtype": "float32", "axis": [3], "momentum": 0.99, "epsilon": 0.001, "center": true, "scale": true, "beta_initializer": {"class_name": "Zeros", "config": {}}, "gamma_initializer": {"class_name": "Ones", "config": {}}, "moving_mean_initializer": {"class_name": "Zeros", "config": {}}, "moving_variance_initializer": {"class_name": "Ones", "config": {}}, "beta_regularizer": null, "gamma_regularizer": null, "beta_constraint": null, "gamma_constraint": null}, "name": "BN_81", "inbound_nodes": [[["convn_81", 0, 0, {}]]]}, {"class_name": "Activation", "config": {"name": "mish_81", "trainable": true, "dtype": "float32", "activation": {"class_name": "Mish", "config": {"name": "mish", "trainable": true, "dtype": "float32", "activation": "mish"}, "shared_object_id": 9}}, "name": "mish_81", "inbound_nodes": [[["BN_81", 0, 0, {}]]]}, {"class_name": "Add", "config": {"name": "add_82", "trainable": true, "dtype": "float32"}, "name": "add_82", "inbound_nodes": [[["add_79", 0, 0, {}], ["mish_81", 0, 0, {}]]]}, {"class_name": "Conv2D", "config": {"name": "convn_83", "trainable": true, "dtype": "float32", "filters": 256, "kernel_size": [1, 1], "strides": [1, 1], "padding": "same", "data_format": "channels_last", "dilation_rate": [1, 1], "groups": 1, "activation": "linear", "use_bias": true, "kernel_initializer": {"class_name": "GlorotUniform", "config": {"seed": null}}, "bias_initializer": {"class_name": "Zeros", "config": {}}, "kernel_regularizer": null, "bias_regularizer": null, "activity_regularizer": null, "kernel_constraint": null, "bias_constraint": null}, "name": "convn_83", "inbound_nodes": [[["add_82", 0, 0, {}]]]}, {"class_name": "Conv2D", "config": {"name": "convn_56", "trainable": true, "dtype": "float32", "filters": 256, "kernel_size": [1, 1], "strides": [1, 1], "padding": "same", "data_format": "channels_last", "dilation_rate": [1, 1], "groups": 1, "activation": "linear", "use_bias": true, "kernel_initializer": {"class_name": "GlorotUniform", "config": {"seed": null}}, "bias_initializer": {"class_name": "Zeros", "config": {}}, "kernel_regularizer": null, "bias_regularizer": null, "activity_regularizer": null, "kernel_constraint": null, "bias_constraint": null}, "name": "convn_56", "inbound_nodes": [[["mish_55", 0, 0, {}]]]}, {"class_name": "BatchNormalization", "config": {"name": "BN_83", "trainable": true, "dtype": "float32", "axis": [3], "momentum": 0.99, "epsilon": 0.001, "center": true, "scale": true, "beta_initializer": {"class_name": "Zeros", "config": {}}, "gamma_initializer": {"class_name": "Ones", "config": {}}, "moving_mean_initializer": {"class_name": "Zeros", "config": {}}, "moving_variance_initializer": {"class_name": "Ones", "config": {}}, "beta_regularizer": null, "gamma_regularizer": null, "beta_constraint": null, "gamma_constraint": null}, "name": "BN_83", "inbound_nodes": [[["convn_83", 0, 0, {}]]]}, {"class_name": "BatchNormalization", "config": {"name": "BN_56", "trainable": true, "dtype": "float32", "axis": [3], "momentum": 0.99, "epsilon": 0.001, "center": true, "scale": true, "beta_initializer": {"class_name": "Zeros", "config": {}}, "gamma_initializer": {"class_name": "Ones", "config": {}}, "moving_mean_initializer": {"class_name": "Zeros", "config": {}}, "moving_variance_initializer": {"class_name": "Ones", "config": {}}, "beta_regularizer": null, "gamma_regularizer": null, "beta_constraint": null, "gamma_constraint": null}, "name": "BN_56", "inbound_nodes": [[["convn_56", 0, 0, {}]]]}, {"class_name": "Activation", "config": {"name": "mish_83", "trainable": true, "dtype": "float32", "activation": {"class_name": "Mish", "config": {"name": "mish", "trainable": true, "dtype": "float32", "activation": "mish"}, "shared_object_id": 9}}, "name": "mish_83", "inbound_nodes": [[["BN_83", 0, 0, {}]]]}, {"class_name": "Activation", "config": {"name": "mish_56", "trainable": true, "dtype": "float32", "activation": {"class_name": "Mish", "config": {"name": "mish", "trainable": true, "dtype": "float32", "activation": "mish"}, "shared_object_id": 9}}, "name": "mish_56", "inbound_nodes": [[["BN_56", 0, 0, {}]]]}, {"class_name": "Concatenate", "config": {"name": "concat_84", "trainable": true, "dtype": "float32", "axis": -1}, "name": "concat_84", "inbound_nodes": [[["mish_83", 0, 0, {}], ["mish_56", 0, 0, {}]]]}, {"class_name": "Conv2D", "config": {"name": "convn_85", "trainable": true, "dtype": "float32", "filters": 512, "kernel_size": [1, 1], "strides": [1, 1], "padding": "same", "data_format": "channels_last", "dilation_rate": [1, 1], "groups": 1, "activation": "linear", "use_bias": true, "kernel_initializer": {"class_name": "GlorotUniform", "config": {"seed": null}}, "bias_initializer": {"class_name": "Zeros", "config": {}}, "kernel_regularizer": null, "bias_regularizer": null, "activity_regularizer": null, "kernel_constraint": null, "bias_constraint": null}, "name": "convn_85", "inbound_nodes": [[["concat_84", 0, 0, {}]]]}, {"class_name": "BatchNormalization", "config": {"name": "BN_85", "trainable": true, "dtype": "float32", "axis": [3], "momentum": 0.99, "epsilon": 0.001, "center": true, "scale": true, "beta_initializer": {"class_name": "Zeros", "config": {}}, "gamma_initializer": {"class_name": "Ones", "config": {}}, "moving_mean_initializer": {"class_name": "Zeros", "config": {}}, "moving_variance_initializer": {"class_name": "Ones", "config": {}}, "beta_regularizer": null, "gamma_regularizer": null, "beta_constraint": null, "gamma_constraint": null}, "name": "BN_85", "inbound_nodes": [[["convn_85", 0, 0, {}]]]}, {"class_name": "Activation", "config": {"name": "mish_85", "trainable": true, "dtype": "float32", "activation": {"class_name": "Mish", "config": {"name": "mish", "trainable": true, "dtype": "float32", "activation": "mish"}, "shared_object_id": 9}}, "name": "mish_85", "inbound_nodes": [[["BN_85", 0, 0, {}]]]}, {"class_name": "ZeroPadding2D", "config": {"name": "zerop_86", "trainable": true, "dtype": "float32", "padding": [[1, 0], [1, 0]], "data_format": "channels_last"}, "name": "zerop_86", "inbound_nodes": [[["mish_85", 0, 0, {}]]]}, {"class_name": "Conv2D", "config": {"name": "convn_86", "trainable": true, "dtype": "float32", "filters": 1024, "kernel_size": [3, 3], "strides": [2, 2], "padding": "valid", "data_format": "channels_last", "dilation_rate": [1, 1], "groups": 1, "activation": "linear", "use_bias": true, "kernel_initializer": {"class_name": "GlorotUniform", "config": {"seed": null}}, "bias_initializer": {"class_name": "Zeros", "config": {}}, "kernel_regularizer": null, "bias_regularizer": null, "activity_regularizer": null, "kernel_constraint": null, "bias_constraint": null}, "name": "convn_86", "inbound_nodes": [[["zerop_86", 0, 0, {}]]]}, {"class_name": "BatchNormalization", "config": {"name": "BN_86", "trainable": true, "dtype": "float32", "axis": [3], "momentum": 0.99, "epsilon": 0.001, "center": true, "scale": true, "beta_initializer": {"class_name": "Zeros", "config": {}}, "gamma_initializer": {"class_name": "Ones", "config": {}}, "moving_mean_initializer": {"class_name": "Zeros", "config": {}}, "moving_variance_initializer": {"class_name": "Ones", "config": {}}, "beta_regularizer": null, "gamma_regularizer": null, "beta_constraint": null, "gamma_constraint": null}, "name": "BN_86", "inbound_nodes": [[["convn_86", 0, 0, {}]]]}, {"class_name": "Activation", "config": {"name": "mish_86", "trainable": true, "dtype": "float32", "activation": {"class_name": "Mish", "config": {"name": "mish", "trainable": true, "dtype": "float32", "activation": "mish"}, "shared_object_id": 9}}, "name": "mish_86", "inbound_nodes": [[["BN_86", 0, 0, {}]]]}, {"class_name": "Conv2D", "config": {"name": "convn_89", "trainable": true, "dtype": "float32", "filters": 512, "kernel_size": [1, 1], "strides": [1, 1], "padding": "same", "data_format": "channels_last", "dilation_rate": [1, 1], "groups": 1, "activation": "linear", "use_bias": true, "kernel_initializer": {"class_name": "GlorotUniform", "config": {"seed": null}}, "bias_initializer": {"class_name": "Zeros", "config": {}}, "kernel_regularizer": null, "bias_regularizer": null, "activity_regularizer": null, "kernel_constraint": null, "bias_constraint": null}, "name": "convn_89", "inbound_nodes": [[["mish_86", 0, 0, {}]]]}, {"class_name": "BatchNormalization", "config": {"name": "BN_89", "trainable": true, "dtype": "float32", "axis": [3], "momentum": 0.99, "epsilon": 0.001, "center": true, "scale": true, "beta_initializer": {"class_name": "Zeros", "config": {}}, "gamma_initializer": {"class_name": "Ones", "config": {}}, "moving_mean_initializer": {"class_name": "Zeros", "config": {}}, "moving_variance_initializer": {"class_name": "Ones", "config": {}}, "beta_regularizer": null, "gamma_regularizer": null, "beta_constraint": null, "gamma_constraint": null}, "name": "BN_89", "inbound_nodes": [[["convn_89", 0, 0, {}]]]}, {"class_name": "Activation", "config": {"name": "mish_89", "trainable": true, "dtype": "float32", "activation": {"class_name": "Mish", "config": {"name": "mish", "trainable": true, "dtype": "float32", "activation": "mish"}, "shared_object_id": 9}}, "name": "mish_89", "inbound_nodes": [[["BN_89", 0, 0, {}]]]}, {"class_name": "Conv2D", "config": {"name": "convn_90", "trainable": true, "dtype": "float32", "filters": 512, "kernel_size": [1, 1], "strides": [1, 1], "padding": "same", "data_format": "channels_last", "dilation_rate": [1, 1], "groups": 1, "activation": "linear", "use_bias": true, "kernel_initializer": {"class_name": "GlorotUniform", "config": {"seed": null}}, "bias_initializer": {"class_name": "Zeros", "config": {}}, "kernel_regularizer": null, "bias_regularizer": null, "activity_regularizer": null, "kernel_constraint": null, "bias_constraint": null}, "name": "convn_90", "inbound_nodes": [[["mish_89", 0, 0, {}]]]}, {"class_name": "BatchNormalization", "config": {"name": "BN_90", "trainable": true, "dtype": "float32", "axis": [3], "momentum": 0.99, "epsilon": 0.001, "center": true, "scale": true, "beta_initializer": {"class_name": "Zeros", "config": {}}, "gamma_initializer": {"class_name": "Ones", "config": {}}, "moving_mean_initializer": {"class_name": "Zeros", "config": {}}, "moving_variance_initializer": {"class_name": "Ones", "config": {}}, "beta_regularizer": null, "gamma_regularizer": null, "beta_constraint": null, "gamma_constraint": null}, "name": "BN_90", "inbound_nodes": [[["convn_90", 0, 0, {}]]]}, {"class_name": "Activation", "config": {"name": "mish_90", "trainable": true, "dtype": "float32", "activation": {"class_name": "Mish", "config": {"name": "mish", "trainable": true, "dtype": "float32", "activation": "mish"}, "shared_object_id": 9}}, "name": "mish_90", "inbound_nodes": [[["BN_90", 0, 0, {}]]]}, {"class_name": "Conv2D", "config": {"name": "convn_91", "trainable": true, "dtype": "float32", "filters": 512, "kernel_size": [3, 3], "strides": [1, 1], "padding": "same", "data_format": "channels_last", "dilation_rate": [1, 1], "groups": 1, "activation": "linear", "use_bias": true, "kernel_initializer": {"class_name": "GlorotUniform", "config": {"seed": null}}, "bias_initializer": {"class_name": "Zeros", "config": {}}, "kernel_regularizer": null, "bias_regularizer": null, "activity_regularizer": null, "kernel_constraint": null, "bias_constraint": null}, "name": "convn_91", "inbound_nodes": [[["mish_90", 0, 0, {}]]]}, {"class_name": "BatchNormalization", "config": {"name": "BN_91", "trainable": true, "dtype": "float32", "axis": [3], "momentum": 0.99, "epsilon": 0.001, "center": true, "scale": true, "beta_initializer": {"class_name": "Zeros", "config": {}}, "gamma_initializer": {"class_name": "Ones", "config": {}}, "moving_mean_initializer": {"class_name": "Zeros", "config": {}}, "moving_variance_initializer": {"class_name": "Ones", "config": {}}, "beta_regularizer": null, "gamma_regularizer": null, "beta_constraint": null, "gamma_constraint": null}, "name": "BN_91", "inbound_nodes": [[["convn_91", 0, 0, {}]]]}, {"class_name": "Activation", "config": {"name": "mish_91", "trainable": true, "dtype": "float32", "activation": {"class_name": "Mish", "config": {"name": "mish", "trainable": true, "dtype": "float32", "activation": "mish"}, "shared_object_id": 9}}, "name": "mish_91", "inbound_nodes": [[["BN_91", 0, 0, {}]]]}, {"class_name": "Add", "config": {"name": "add_92", "trainable": true, "dtype": "float32"}, "name": "add_92", "inbound_nodes": [[["mish_89", 0, 0, {}], ["mish_91", 0, 0, {}]]]}, {"class_name": "Conv2D", "config": {"name": "convn_93", "trainable": true, "dtype": "float32", "filters": 512, "kernel_size": [1, 1], "strides": [1, 1], "padding": "same", "data_format": "channels_last", "dilation_rate": [1, 1], "groups": 1, "activation": "linear", "use_bias": true, "kernel_initializer": {"class_name": "GlorotUniform", "config": {"seed": null}}, "bias_initializer": {"class_name": "Zeros", "config": {}}, "kernel_regularizer": null, "bias_regularizer": null, "activity_regularizer": null, "kernel_constraint": null, "bias_constraint": null}, "name": "convn_93", "inbound_nodes": [[["add_92", 0, 0, {}]]]}, {"class_name": "BatchNormalization", "config": {"name": "BN_93", "trainable": true, "dtype": "float32", "axis": [3], "momentum": 0.99, "epsilon": 0.001, "center": true, "scale": true, "beta_initializer": {"class_name": "Zeros", "config": {}}, "gamma_initializer": {"class_name": "Ones", "config": {}}, "moving_mean_initializer": {"class_name": "Zeros", "config": {}}, "moving_variance_initializer": {"class_name": "Ones", "config": {}}, "beta_regularizer": null, "gamma_regularizer": null, "beta_constraint": null, "gamma_constraint": null}, "name": "BN_93", "inbound_nodes": [[["convn_93", 0, 0, {}]]]}, {"class_name": "Activation", "config": {"name": "mish_93", "trainable": true, "dtype": "float32", "activation": {"class_name": "Mish", "config": {"name": "mish", "trainable": true, "dtype": "float32", "activation": "mish"}, "shared_object_id": 9}}, "name": "mish_93", "inbound_nodes": [[["BN_93", 0, 0, {}]]]}, {"class_name": "Conv2D", "config": {"name": "convn_94", "trainable": true, "dtype": "float32", "filters": 512, "kernel_size": [3, 3], "strides": [1, 1], "padding": "same", "data_format": "channels_last", "dilation_rate": [1, 1], "groups": 1, "activation": "linear", "use_bias": true, "kernel_initializer": {"class_name": "GlorotUniform", "config": {"seed": null}}, "bias_initializer": {"class_name": "Zeros", "config": {}}, "kernel_regularizer": null, "bias_regularizer": null, "activity_regularizer": null, "kernel_constraint": null, "bias_constraint": null}, "name": "convn_94", "inbound_nodes": [[["mish_93", 0, 0, {}]]]}, {"class_name": "BatchNormalization", "config": {"name": "BN_94", "trainable": true, "dtype": "float32", "axis": [3], "momentum": 0.99, "epsilon": 0.001, "center": true, "scale": true, "beta_initializer": {"class_name": "Zeros", "config": {}}, "gamma_initializer": {"class_name": "Ones", "config": {}}, "moving_mean_initializer": {"class_name": "Zeros", "config": {}}, "moving_variance_initializer": {"class_name": "Ones", "config": {}}, "beta_regularizer": null, "gamma_regularizer": null, "beta_constraint": null, "gamma_constraint": null}, "name": "BN_94", "inbound_nodes": [[["convn_94", 0, 0, {}]]]}, {"class_name": "Activation", "config": {"name": "mish_94", "trainable": true, "dtype": "float32", "activation": {"class_name": "Mish", "config": {"name": "mish", "trainable": true, "dtype": "float32", "activation": "mish"}, "shared_object_id": 9}}, "name": "mish_94", "inbound_nodes": [[["BN_94", 0, 0, {}]]]}, {"class_name": "Add", "config": {"name": "add_95", "trainable": true, "dtype": "float32"}, "name": "add_95", "inbound_nodes": [[["add_92", 0, 0, {}], ["mish_94", 0, 0, {}]]]}, {"class_name": "Conv2D", "config": {"name": "convn_96", "trainable": true, "dtype": "float32", "filters": 512, "kernel_size": [1, 1], "strides": [1, 1], "padding": "same", "data_format": "channels_last", "dilation_rate": [1, 1], "groups": 1, "activation": "linear", "use_bias": true, "kernel_initializer": {"class_name": "GlorotUniform", "config": {"seed": null}}, "bias_initializer": {"class_name": "Zeros", "config": {}}, "kernel_regularizer": null, "bias_regularizer": null, "activity_regularizer": null, "kernel_constraint": null, "bias_constraint": null}, "name": "convn_96", "inbound_nodes": [[["add_95", 0, 0, {}]]]}, {"class_name": "BatchNormalization", "config": {"name": "BN_96", "trainable": true, "dtype": "float32", "axis": [3], "momentum": 0.99, "epsilon": 0.001, "center": true, "scale": true, "beta_initializer": {"class_name": "Zeros", "config": {}}, "gamma_initializer": {"class_name": "Ones", "config": {}}, "moving_mean_initializer": {"class_name": "Zeros", "config": {}}, "moving_variance_initializer": {"class_name": "Ones", "config": {}}, "beta_regularizer": null, "gamma_regularizer": null, "beta_constraint": null, "gamma_constraint": null}, "name": "BN_96", "inbound_nodes": [[["convn_96", 0, 0, {}]]]}, {"class_name": "Activation", "config": {"name": "mish_96", "trainable": true, "dtype": "float32", "activation": {"class_name": "Mish", "config": {"name": "mish", "trainable": true, "dtype": "float32", "activation": "mish"}, "shared_object_id": 9}}, "name": "mish_96", "inbound_nodes": [[["BN_96", 0, 0, {}]]]}, {"class_name": "Conv2D", "config": {"name": "convn_97", "trainable": true, "dtype": "float32", "filters": 512, "kernel_size": [3, 3], "strides": [1, 1], "padding": "same", "data_format": "channels_last", "dilation_rate": [1, 1], "groups": 1, "activation": "linear", "use_bias": true, "kernel_initializer": {"class_name": "GlorotUniform", "config": {"seed": null}}, "bias_initializer": {"class_name": "Zeros", "config": {}}, "kernel_regularizer": null, "bias_regularizer": null, "activity_regularizer": null, "kernel_constraint": null, "bias_constraint": null}, "name": "convn_97", "inbound_nodes": [[["mish_96", 0, 0, {}]]]}, {"class_name": "BatchNormalization", "config": {"name": "BN_97", "trainable": true, "dtype": "float32", "axis": [3], "momentum": 0.99, "epsilon": 0.001, "center": true, "scale": true, "beta_initializer": {"class_name": "Zeros", "config": {}}, "gamma_initializer": {"class_name": "Ones", "config": {}}, "moving_mean_initializer": {"class_name": "Zeros", "config": {}}, "moving_variance_initializer": {"class_name": "Ones", "config": {}}, "beta_regularizer": null, "gamma_regularizer": null, "beta_constraint": null, "gamma_constraint": null}, "name": "BN_97", "inbound_nodes": [[["convn_97", 0, 0, {}]]]}, {"class_name": "Activation", "config": {"name": "mish_97", "trainable": true, "dtype": "float32", "activation": {"class_name": "Mish", "config": {"name": "mish", "trainable": true, "dtype": "float32", "activation": "mish"}, "shared_object_id": 9}}, "name": "mish_97", "inbound_nodes": [[["BN_97", 0, 0, {}]]]}, {"class_name": "Add", "config": {"name": "add_98", "trainable": true, "dtype": "float32"}, "name": "add_98", "inbound_nodes": [[["add_95", 0, 0, {}], ["mish_97", 0, 0, {}]]]}, {"class_name": "Conv2D", "config": {"name": "convn_99", "trainable": true, "dtype": "float32", "filters": 512, "kernel_size": [1, 1], "strides": [1, 1], "padding": "same", "data_format": "channels_last", "dilation_rate": [1, 1], "groups": 1, "activation": "linear", "use_bias": true, "kernel_initializer": {"class_name": "GlorotUniform", "config": {"seed": null}}, "bias_initializer": {"class_name": "Zeros", "config": {}}, "kernel_regularizer": null, "bias_regularizer": null, "activity_regularizer": null, "kernel_constraint": null, "bias_constraint": null}, "name": "convn_99", "inbound_nodes": [[["add_98", 0, 0, {}]]]}, {"class_name": "BatchNormalization", "config": {"name": "BN_99", "trainable": true, "dtype": "float32", "axis": [3], "momentum": 0.99, "epsilon": 0.001, "center": true, "scale": true, "beta_initializer": {"class_name": "Zeros", "config": {}}, "gamma_initializer": {"class_name": "Ones", "config": {}}, "moving_mean_initializer": {"class_name": "Zeros", "config": {}}, "moving_variance_initializer": {"class_name": "Ones", "config": {}}, "beta_regularizer": null, "gamma_regularizer": null, "beta_constraint": null, "gamma_constraint": null}, "name": "BN_99", "inbound_nodes": [[["convn_99", 0, 0, {}]]]}, {"class_name": "Activation", "config": {"name": "mish_99", "trainable": true, "dtype": "float32", "activation": {"class_name": "Mish", "config": {"name": "mish", "trainable": true, "dtype": "float32", "activation": "mish"}, "shared_object_id": 9}}, "name": "mish_99", "inbound_nodes": [[["BN_99", 0, 0, {}]]]}, {"class_name": "Conv2D", "config": {"name": "convn_100", "trainable": true, "dtype": "float32", "filters": 512, "kernel_size": [3, 3], "strides": [1, 1], "padding": "same", "data_format": "channels_last", "dilation_rate": [1, 1], "groups": 1, "activation": "linear", "use_bias": true, "kernel_initializer": {"class_name": "GlorotUniform", "config": {"seed": null}}, "bias_initializer": {"class_name": "Zeros", "config": {}}, "kernel_regularizer": null, "bias_regularizer": null, "activity_regularizer": null, "kernel_constraint": null, "bias_constraint": null}, "name": "convn_100", "inbound_nodes": [[["mish_99", 0, 0, {}]]]}, {"class_name": "BatchNormalization", "config": {"name": "BN_100", "trainable": true, "dtype": "float32", "axis": [3], "momentum": 0.99, "epsilon": 0.001, "center": true, "scale": true, "beta_initializer": {"class_name": "Zeros", "config": {}}, "gamma_initializer": {"class_name": "Ones", "config": {}}, "moving_mean_initializer": {"class_name": "Zeros", "config": {}}, "moving_variance_initializer": {"class_name": "Ones", "config": {}}, "beta_regularizer": null, "gamma_regularizer": null, "beta_constraint": null, "gamma_constraint": null}, "name": "BN_100", "inbound_nodes": [[["convn_100", 0, 0, {}]]]}, {"class_name": "Activation", "config": {"name": "mish_100", "trainable": true, "dtype": "float32", "activation": {"class_name": "Mish", "config": {"name": "mish", "trainable": true, "dtype": "float32", "activation": "mish"}, "shared_object_id": 9}}, "name": "mish_100", "inbound_nodes": [[["BN_100", 0, 0, {}]]]}, {"class_name": "Add", "config": {"name": "add_101", "trainable": true, "dtype": "float32"}, "name": "add_101", "inbound_nodes": [[["add_98", 0, 0, {}], ["mish_100", 0, 0, {}]]]}, {"class_name": "Conv2D", "config": {"name": "convn_102", "trainable": true, "dtype": "float32", "filters": 512, "kernel_size": [1, 1], "strides": [1, 1], "padding": "same", "data_format": "channels_last", "dilation_rate": [1, 1], "groups": 1, "activation": "linear", "use_bias": true, "kernel_initializer": {"class_name": "GlorotUniform", "config": {"seed": null}}, "bias_initializer": {"class_name": "Zeros", "config": {}}, "kernel_regularizer": null, "bias_regularizer": null, "activity_regularizer": null, "kernel_constraint": null, "bias_constraint": null}, "name": "convn_102", "inbound_nodes": [[["add_101", 0, 0, {}]]]}, {"class_name": "Conv2D", "config": {"name": "convn_87", "trainable": true, "dtype": "float32", "filters": 512, "kernel_size": [1, 1], "strides": [1, 1], "padding": "same", "data_format": "channels_last", "dilation_rate": [1, 1], "groups": 1, "activation": "linear", "use_bias": true, "kernel_initializer": {"class_name": "GlorotUniform", "config": {"seed": null}}, "bias_initializer": {"class_name": "Zeros", "config": {}}, "kernel_regularizer": null, "bias_regularizer": null, "activity_regularizer": null, "kernel_constraint": null, "bias_constraint": null}, "name": "convn_87", "inbound_nodes": [[["mish_86", 0, 0, {}]]]}, {"class_name": "BatchNormalization", "config": {"name": "BN_102", "trainable": true, "dtype": "float32", "axis": [3], "momentum": 0.99, "epsilon": 0.001, "center": true, "scale": true, "beta_initializer": {"class_name": "Zeros", "config": {}}, "gamma_initializer": {"class_name": "Ones", "config": {}}, "moving_mean_initializer": {"class_name": "Zeros", "config": {}}, "moving_variance_initializer": {"class_name": "Ones", "config": {}}, "beta_regularizer": null, "gamma_regularizer": null, "beta_constraint": null, "gamma_constraint": null}, "name": "BN_102", "inbound_nodes": [[["convn_102", 0, 0, {}]]]}, {"class_name": "BatchNormalization", "config": {"name": "BN_87", "trainable": true, "dtype": "float32", "axis": [3], "momentum": 0.99, "epsilon": 0.001, "center": true, "scale": true, "beta_initializer": {"class_name": "Zeros", "config": {}}, "gamma_initializer": {"class_name": "Ones", "config": {}}, "moving_mean_initializer": {"class_name": "Zeros", "config": {}}, "moving_variance_initializer": {"class_name": "Ones", "config": {}}, "beta_regularizer": null, "gamma_regularizer": null, "beta_constraint": null, "gamma_constraint": null}, "name": "BN_87", "inbound_nodes": [[["convn_87", 0, 0, {}]]]}, {"class_name": "Activation", "config": {"name": "mish_102", "trainable": true, "dtype": "float32", "activation": {"class_name": "Mish", "config": {"name": "mish", "trainable": true, "dtype": "float32", "activation": "mish"}, "shared_object_id": 9}}, "name": "mish_102", "inbound_nodes": [[["BN_102", 0, 0, {}]]]}, {"class_name": "Activation", "config": {"name": "mish_87", "trainable": true, "dtype": "float32", "activation": {"class_name": "Mish", "config": {"name": "mish", "trainable": true, "dtype": "float32", "activation": "mish"}, "shared_object_id": 9}}, "name": "mish_87", "inbound_nodes": [[["BN_87", 0, 0, {}]]]}, {"class_name": "Concatenate", "config": {"name": "concat_103", "trainable": true, "dtype": "float32", "axis": -1}, "name": "concat_103", "inbound_nodes": [[["mish_102", 0, 0, {}], ["mish_87", 0, 0, {}]]]}, {"class_name": "Conv2D", "config": {"name": "convn_104", "trainable": true, "dtype": "float32", "filters": 1024, "kernel_size": [1, 1], "strides": [1, 1], "padding": "same", "data_format": "channels_last", "dilation_rate": [1, 1], "groups": 1, "activation": "linear", "use_bias": true, "kernel_initializer": {"class_name": "GlorotUniform", "config": {"seed": null}}, "bias_initializer": {"class_name": "Zeros", "config": {}}, "kernel_regularizer": null, "bias_regularizer": null, "activity_regularizer": null, "kernel_constraint": null, "bias_constraint": null}, "name": "convn_104", "inbound_nodes": [[["concat_103", 0, 0, {}]]]}, {"class_name": "BatchNormalization", "config": {"name": "BN_104", "trainable": true, "dtype": "float32", "axis": [3], "momentum": 0.99, "epsilon": 0.001, "center": true, "scale": true, "beta_initializer": {"class_name": "Zeros", "config": {}}, "gamma_initializer": {"class_name": "Ones", "config": {}}, "moving_mean_initializer": {"class_name": "Zeros", "config": {}}, "moving_variance_initializer": {"class_name": "Ones", "config": {}}, "beta_regularizer": null, "gamma_regularizer": null, "beta_constraint": null, "gamma_constraint": null}, "name": "BN_104", "inbound_nodes": [[["convn_104", 0, 0, {}]]]}, {"class_name": "Activation", "config": {"name": "mish_104", "trainable": true, "dtype": "float32", "activation": {"class_name": "Mish", "config": {"name": "mish", "trainable": true, "dtype": "float32", "activation": "mish"}, "shared_object_id": 9}}, "name": "mish_104", "inbound_nodes": [[["BN_104", 0, 0, {}]]]}, {"class_name": "Conv2D", "config": {"name": "convn_105", "trainable": true, "dtype": "float32", "filters": 512, "kernel_size": [1, 1], "strides": [1, 1], "padding": "same", "data_format": "channels_last", "dilation_rate": [1, 1], "groups": 1, "activation": "linear", "use_bias": true, "kernel_initializer": {"class_name": "GlorotUniform", "config": {"seed": null}}, "bias_initializer": {"class_name": "Zeros", "config": {}}, "kernel_regularizer": null, "bias_regularizer": null, "activity_regularizer": null, "kernel_constraint": null, "bias_constraint": null}, "name": "convn_105", "inbound_nodes": [[["mish_104", 0, 0, {}]]]}, {"class_name": "BatchNormalization", "config": {"name": "BN_105", "trainable": true, "dtype": "float32", "axis": [3], "momentum": 0.99, "epsilon": 0.001, "center": true, "scale": true, "beta_initializer": {"class_name": "Zeros", "config": {}}, "gamma_initializer": {"class_name": "Ones", "config": {}}, "moving_mean_initializer": {"class_name": "Zeros", "config": {}}, "moving_variance_initializer": {"class_name": "Ones", "config": {}}, "beta_regularizer": null, "gamma_regularizer": null, "beta_constraint": null, "gamma_constraint": null}, "name": "BN_105", "inbound_nodes": [[["convn_105", 0, 0, {}]]]}, {"class_name": "LeakyReLU", "config": {"name": "leaky_105", "trainable": true, "dtype": "float32", "alpha": 0.10000000149011612}, "name": "leaky_105", "inbound_nodes": [[["BN_105", 0, 0, {}]]]}, {"class_name": "Conv2D", "config": {"name": "convn_106", "trainable": true, "dtype": "float32", "filters": 1024, "kernel_size": [3, 3], "strides": [1, 1], "padding": "same", "data_format": "channels_last", "dilation_rate": [1, 1], "groups": 1, "activation": "linear", "use_bias": true, "kernel_initializer": {"class_name": "GlorotUniform", "config": {"seed": null}}, "bias_initializer": {"class_name": "Zeros", "config": {}}, "kernel_regularizer": null, "bias_regularizer": null, "activity_regularizer": null, "kernel_constraint": null, "bias_constraint": null}, "name": "convn_106", "inbound_nodes": [[["leaky_105", 0, 0, {}]]]}, {"class_name": "BatchNormalization", "config": {"name": "BN_106", "trainable": true, "dtype": "float32", "axis": [3], "momentum": 0.99, "epsilon": 0.001, "center": true, "scale": true, "beta_initializer": {"class_name": "Zeros", "config": {}}, "gamma_initializer": {"class_name": "Ones", "config": {}}, "moving_mean_initializer": {"class_name": "Zeros", "config": {}}, "moving_variance_initializer": {"class_name": "Ones", "config": {}}, "beta_regularizer": null, "gamma_regularizer": null, "beta_constraint": null, "gamma_constraint": null}, "name": "BN_106", "inbound_nodes": [[["convn_106", 0, 0, {}]]]}, {"class_name": "LeakyReLU", "config": {"name": "leaky_106", "trainable": true, "dtype": "float32", "alpha": 0.10000000149011612}, "name": "leaky_106", "inbound_nodes": [[["BN_106", 0, 0, {}]]]}, {"class_name": "Conv2D", "config": {"name": "convn_107", "trainable": true, "dtype": "float32", "filters": 512, "kernel_size": [1, 1], "strides": [1, 1], "padding": "same", "data_format": "channels_last", "dilation_rate": [1, 1], "groups": 1, "activation": "linear", "use_bias": true, "kernel_initializer": {"class_name": "GlorotUniform", "config": {"seed": null}}, "bias_initializer": {"class_name": "Zeros", "config": {}}, "kernel_regularizer": null, "bias_regularizer": null, "activity_regularizer": null, "kernel_constraint": null, "bias_constraint": null}, "name": "convn_107", "inbound_nodes": [[["leaky_106", 0, 0, {}]]]}, {"class_name": "BatchNormalization", "config": {"name": "BN_107", "trainable": true, "dtype": "float32", "axis": [3], "momentum": 0.99, "epsilon": 0.001, "center": true, "scale": true, "beta_initializer": {"class_name": "Zeros", "config": {}}, "gamma_initializer": {"class_name": "Ones", "config": {}}, "moving_mean_initializer": {"class_name": "Zeros", "config": {}}, "moving_variance_initializer": {"class_name": "Ones", "config": {}}, "beta_regularizer": null, "gamma_regularizer": null, "beta_constraint": null, "gamma_constraint": null}, "name": "BN_107", "inbound_nodes": [[["convn_107", 0, 0, {}]]]}, {"class_name": "LeakyReLU", "config": {"name": "leaky_107", "trainable": true, "dtype": "float32", "alpha": 0.10000000149011612}, "name": "leaky_107", "inbound_nodes": [[["BN_107", 0, 0, {}]]]}, {"class_name": "MaxPooling2D", "config": {"name": "layer_112", "trainable": true, "dtype": "float32", "pool_size": [13, 13], "padding": "same", "strides": [1, 1], "data_format": "channels_last"}, "name": "layer_112", "inbound_nodes": [[["leaky_107", 0, 0, {}]]]}, {"class_name": "MaxPooling2D", "config": {"name": "layer_110", "trainable": true, "dtype": "float32", "pool_size": [9, 9], "padding": "same", "strides": [1, 1], "data_format": "channels_last"}, "name": "layer_110", "inbound_nodes": [[["leaky_107", 0, 0, {}]]]}, {"class_name": "MaxPooling2D", "config": {"name": "layer_108", "trainable": true, "dtype": "float32", "pool_size": [5, 5], "padding": "same", "strides": [1, 1], "data_format": "channels_last"}, "name": "layer_108", "inbound_nodes": [[["leaky_107", 0, 0, {}]]]}, {"class_name": "Concatenate", "config": {"name": "concat_113", "trainable": true, "dtype": "float32", "axis": -1}, "name": "concat_113", "inbound_nodes": [[["layer_112", 0, 0, {}], ["layer_110", 0, 0, {}], ["layer_108", 0, 0, {}], ["leaky_107", 0, 0, {}]]]}, {"class_name": "Conv2D", "config": {"name": "convn_114", "trainable": true, "dtype": "float32", "filters": 512, "kernel_size": [1, 1], "strides": [1, 1], "padding": "same", "data_format": "channels_last", "dilation_rate": [1, 1], "groups": 1, "activation": "linear", "use_bias": true, "kernel_initializer": {"class_name": "GlorotUniform", "config": {"seed": null}}, "bias_initializer": {"class_name": "Zeros", "config": {}}, "kernel_regularizer": null, "bias_regularizer": null, "activity_regularizer": null, "kernel_constraint": null, "bias_constraint": null}, "name": "convn_114", "inbound_nodes": [[["concat_113", 0, 0, {}]]]}, {"class_name": "BatchNormalization", "config": {"name": "BN_114", "trainable": true, "dtype": "float32", "axis": [3], "momentum": 0.99, "epsilon": 0.001, "center": true, "scale": true, "beta_initializer": {"class_name": "Zeros", "config": {}}, "gamma_initializer": {"class_name": "Ones", "config": {}}, "moving_mean_initializer": {"class_name": "Zeros", "config": {}}, "moving_variance_initializer": {"class_name": "Ones", "config": {}}, "beta_regularizer": null, "gamma_regularizer": null, "beta_constraint": null, "gamma_constraint": null}, "name": "BN_114", "inbound_nodes": [[["convn_114", 0, 0, {}]]]}, {"class_name": "LeakyReLU", "config": {"name": "leaky_114", "trainable": true, "dtype": "float32", "alpha": 0.10000000149011612}, "name": "leaky_114", "inbound_nodes": [[["BN_114", 0, 0, {}]]]}, {"class_name": "Conv2D", "config": {"name": "convn_115", "trainable": true, "dtype": "float32", "filters": 1024, "kernel_size": [3, 3], "strides": [1, 1], "padding": "same", "data_format": "channels_last", "dilation_rate": [1, 1], "groups": 1, "activation": "linear", "use_bias": true, "kernel_initializer": {"class_name": "GlorotUniform", "config": {"seed": null}}, "bias_initializer": {"class_name": "Zeros", "config": {}}, "kernel_regularizer": null, "bias_regularizer": null, "activity_regularizer": null, "kernel_constraint": null, "bias_constraint": null}, "name": "convn_115", "inbound_nodes": [[["leaky_114", 0, 0, {}]]]}, {"class_name": "BatchNormalization", "config": {"name": "BN_115", "trainable": true, "dtype": "float32", "axis": [3], "momentum": 0.99, "epsilon": 0.001, "center": true, "scale": true, "beta_initializer": {"class_name": "Zeros", "config": {}}, "gamma_initializer": {"class_name": "Ones", "config": {}}, "moving_mean_initializer": {"class_name": "Zeros", "config": {}}, "moving_variance_initializer": {"class_name": "Ones", "config": {}}, "beta_regularizer": null, "gamma_regularizer": null, "beta_constraint": null, "gamma_constraint": null}, "name": "BN_115", "inbound_nodes": [[["convn_115", 0, 0, {}]]]}, {"class_name": "LeakyReLU", "config": {"name": "leaky_115", "trainable": true, "dtype": "float32", "alpha": 0.10000000149011612}, "name": "leaky_115", "inbound_nodes": [[["BN_115", 0, 0, {}]]]}, {"class_name": "Conv2D", "config": {"name": "convn_116", "trainable": true, "dtype": "float32", "filters": 512, "kernel_size": [1, 1], "strides": [1, 1], "padding": "same", "data_format": "channels_last", "dilation_rate": [1, 1], "groups": 1, "activation": "linear", "use_bias": true, "kernel_initializer": {"class_name": "GlorotUniform", "config": {"seed": null}}, "bias_initializer": {"class_name": "Zeros", "config": {}}, "kernel_regularizer": null, "bias_regularizer": null, "activity_regularizer": null, "kernel_constraint": null, "bias_constraint": null}, "name": "convn_116", "inbound_nodes": [[["leaky_115", 0, 0, {}]]]}, {"class_name": "BatchNormalization", "config": {"name": "BN_116", "trainable": true, "dtype": "float32", "axis": [3], "momentum": 0.99, "epsilon": 0.001, "center": true, "scale": true, "beta_initializer": {"class_name": "Zeros", "config": {}}, "gamma_initializer": {"class_name": "Ones", "config": {}}, "moving_mean_initializer": {"class_name": "Zeros", "config": {}}, "moving_variance_initializer": {"class_name": "Ones", "config": {}}, "beta_regularizer": null, "gamma_regularizer": null, "beta_constraint": null, "gamma_constraint": null}, "name": "BN_116", "inbound_nodes": [[["convn_116", 0, 0, {}]]]}, {"class_name": "LeakyReLU", "config": {"name": "leaky_116", "trainable": true, "dtype": "float32", "alpha": 0.10000000149011612}, "name": "leaky_116", "inbound_nodes": [[["BN_116", 0, 0, {}]]]}, {"class_name": "Conv2D", "config": {"name": "convn_117", "trainable": true, "dtype": "float32", "filters": 256, "kernel_size": [1, 1], "strides": [1, 1], "padding": "same", "data_format": "channels_last", "dilation_rate": [1, 1], "groups": 1, "activation": "linear", "use_bias": true, "kernel_initializer": {"class_name": "GlorotUniform", "config": {"seed": null}}, "bias_initializer": {"class_name": "Zeros", "config": {}}, "kernel_regularizer": null, "bias_regularizer": null, "activity_regularizer": null, "kernel_constraint": null, "bias_constraint": null}, "name": "convn_117", "inbound_nodes": [[["leaky_116", 0, 0, {}]]]}, {"class_name": "Conv2D", "config": {"name": "convn_120", "trainable": true, "dtype": "float32", "filters": 256, "kernel_size": [1, 1], "strides": [1, 1], "padding": "same", "data_format": "channels_last", "dilation_rate": [1, 1], "groups": 1, "activation": "linear", "use_bias": true, "kernel_initializer": {"class_name": "GlorotUniform", "config": {"seed": null}}, "bias_initializer": {"class_name": "Zeros", "config": {}}, "kernel_regularizer": null, "bias_regularizer": null, "activity_regularizer": null, "kernel_constraint": null, "bias_constraint": null}, "name": "convn_120", "inbound_nodes": [[["mish_85", 0, 0, {}]]]}, {"class_name": "BatchNormalization", "config": {"name": "BN_117", "trainable": true, "dtype": "float32", "axis": [3], "momentum": 0.99, "epsilon": 0.001, "center": true, "scale": true, "beta_initializer": {"class_name": "Zeros", "config": {}}, "gamma_initializer": {"class_name": "Ones", "config": {}}, "moving_mean_initializer": {"class_name": "Zeros", "config": {}}, "moving_variance_initializer": {"class_name": "Ones", "config": {}}, "beta_regularizer": null, "gamma_regularizer": null, "beta_constraint": null, "gamma_constraint": null}, "name": "BN_117", "inbound_nodes": [[["convn_117", 0, 0, {}]]]}, {"class_name": "BatchNormalization", "config": {"name": "BN_120", "trainable": true, "dtype": "float32", "axis": [3], "momentum": 0.99, "epsilon": 0.001, "center": true, "scale": true, "beta_initializer": {"class_name": "Zeros", "config": {}}, "gamma_initializer": {"class_name": "Ones", "config": {}}, "moving_mean_initializer": {"class_name": "Zeros", "config": {}}, "moving_variance_initializer": {"class_name": "Ones", "config": {}}, "beta_regularizer": null, "gamma_regularizer": null, "beta_constraint": null, "gamma_constraint": null}, "name": "BN_120", "inbound_nodes": [[["convn_120", 0, 0, {}]]]}, {"class_name": "LeakyReLU", "config": {"name": "leaky_117", "trainable": true, "dtype": "float32", "alpha": 0.10000000149011612}, "name": "leaky_117", "inbound_nodes": [[["BN_117", 0, 0, {}]]]}, {"class_name": "LeakyReLU", "config": {"name": "leaky_120", "trainable": true, "dtype": "float32", "alpha": 0.10000000149011612}, "name": "leaky_120", "inbound_nodes": [[["BN_120", 0, 0, {}]]]}, {"class_name": "UpSampling2D", "config": {"name": "upsamp_118", "trainable": true, "dtype": "float32", "size": [2, 2], "data_format": "channels_last", "interpolation": "nearest"}, "name": "upsamp_118", "inbound_nodes": [[["leaky_117", 0, 0, {}]]]}, {"class_name": "Concatenate", "config": {"name": "concat_121", "trainable": true, "dtype": "float32", "axis": -1}, "name": "concat_121", "inbound_nodes": [[["leaky_120", 0, 0, {}], ["upsamp_118", 0, 0, {}]]]}, {"class_name": "Conv2D", "config": {"name": "convn_122", "trainable": true, "dtype": "float32", "filters": 256, "kernel_size": [1, 1], "strides": [1, 1], "padding": "same", "data_format": "channels_last", "dilation_rate": [1, 1], "groups": 1, "activation": "linear", "use_bias": true, "kernel_initializer": {"class_name": "GlorotUniform", "config": {"seed": null}}, "bias_initializer": {"class_name": "Zeros", "config": {}}, "kernel_regularizer": null, "bias_regularizer": null, "activity_regularizer": null, "kernel_constraint": null, "bias_constraint": null}, "name": "convn_122", "inbound_nodes": [[["concat_121", 0, 0, {}]]]}, {"class_name": "BatchNormalization", "config": {"name": "BN_122", "trainable": true, "dtype": "float32", "axis": [3], "momentum": 0.99, "epsilon": 0.001, "center": true, "scale": true, "beta_initializer": {"class_name": "Zeros", "config": {}}, "gamma_initializer": {"class_name": "Ones", "config": {}}, "moving_mean_initializer": {"class_name": "Zeros", "config": {}}, "moving_variance_initializer": {"class_name": "Ones", "config": {}}, "beta_regularizer": null, "gamma_regularizer": null, "beta_constraint": null, "gamma_constraint": null}, "name": "BN_122", "inbound_nodes": [[["convn_122", 0, 0, {}]]]}, {"class_name": "LeakyReLU", "config": {"name": "leaky_122", "trainable": true, "dtype": "float32", "alpha": 0.10000000149011612}, "name": "leaky_122", "inbound_nodes": [[["BN_122", 0, 0, {}]]]}, {"class_name": "Conv2D", "config": {"name": "convn_123", "trainable": true, "dtype": "float32", "filters": 512, "kernel_size": [3, 3], "strides": [1, 1], "padding": "same", "data_format": "channels_last", "dilation_rate": [1, 1], "groups": 1, "activation": "linear", "use_bias": true, "kernel_initializer": {"class_name": "GlorotUniform", "config": {"seed": null}}, "bias_initializer": {"class_name": "Zeros", "config": {}}, "kernel_regularizer": null, "bias_regularizer": null, "activity_regularizer": null, "kernel_constraint": null, "bias_constraint": null}, "name": "convn_123", "inbound_nodes": [[["leaky_122", 0, 0, {}]]]}, {"class_name": "BatchNormalization", "config": {"name": "BN_123", "trainable": true, "dtype": "float32", "axis": [3], "momentum": 0.99, "epsilon": 0.001, "center": true, "scale": true, "beta_initializer": {"class_name": "Zeros", "config": {}}, "gamma_initializer": {"class_name": "Ones", "config": {}}, "moving_mean_initializer": {"class_name": "Zeros", "config": {}}, "moving_variance_initializer": {"class_name": "Ones", "config": {}}, "beta_regularizer": null, "gamma_regularizer": null, "beta_constraint": null, "gamma_constraint": null}, "name": "BN_123", "inbound_nodes": [[["convn_123", 0, 0, {}]]]}, {"class_name": "LeakyReLU", "config": {"name": "leaky_123", "trainable": true, "dtype": "float32", "alpha": 0.10000000149011612}, "name": "leaky_123", "inbound_nodes": [[["BN_123", 0, 0, {}]]]}, {"class_name": "Conv2D", "config": {"name": "convn_124", "trainable": true, "dtype": "float32", "filters": 256, "kernel_size": [1, 1], "strides": [1, 1], "padding": "same", "data_format": "channels_last", "dilation_rate": [1, 1], "groups": 1, "activation": "linear", "use_bias": true, "kernel_initializer": {"class_name": "GlorotUniform", "config": {"seed": null}}, "bias_initializer": {"class_name": "Zeros", "config": {}}, "kernel_regularizer": null, "bias_regularizer": null, "activity_regularizer": null, "kernel_constraint": null, "bias_constraint": null}, "name": "convn_124", "inbound_nodes": [[["leaky_123", 0, 0, {}]]]}, {"class_name": "BatchNormalization", "config": {"name": "BN_124", "trainable": true, "dtype": "float32", "axis": [3], "momentum": 0.99, "epsilon": 0.001, "center": true, "scale": true, "beta_initializer": {"class_name": "Zeros", "config": {}}, "gamma_initializer": {"class_name": "Ones", "config": {}}, "moving_mean_initializer": {"class_name": "Zeros", "config": {}}, "moving_variance_initializer": {"class_name": "Ones", "config": {}}, "beta_regularizer": null, "gamma_regularizer": null, "beta_constraint": null, "gamma_constraint": null}, "name": "BN_124", "inbound_nodes": [[["convn_124", 0, 0, {}]]]}, {"class_name": "LeakyReLU", "config": {"name": "leaky_124", "trainable": true, "dtype": "float32", "alpha": 0.10000000149011612}, "name": "leaky_124", "inbound_nodes": [[["BN_124", 0, 0, {}]]]}, {"class_name": "Conv2D", "config": {"name": "convn_125", "trainable": true, "dtype": "float32", "filters": 512, "kernel_size": [3, 3], "strides": [1, 1], "padding": "same", "data_format": "channels_last", "dilation_rate": [1, 1], "groups": 1, "activation": "linear", "use_bias": true, "kernel_initializer": {"class_name": "GlorotUniform", "config": {"seed": null}}, "bias_initializer": {"class_name": "Zeros", "config": {}}, "kernel_regularizer": null, "bias_regularizer": null, "activity_regularizer": null, "kernel_constraint": null, "bias_constraint": null}, "name": "convn_125", "inbound_nodes": [[["leaky_124", 0, 0, {}]]]}, {"class_name": "BatchNormalization", "config": {"name": "BN_125", "trainable": true, "dtype": "float32", "axis": [3], "momentum": 0.99, "epsilon": 0.001, "center": true, "scale": true, "beta_initializer": {"class_name": "Zeros", "config": {}}, "gamma_initializer": {"class_name": "Ones", "config": {}}, "moving_mean_initializer": {"class_name": "Zeros", "config": {}}, "moving_variance_initializer": {"class_name": "Ones", "config": {}}, "beta_regularizer": null, "gamma_regularizer": null, "beta_constraint": null, "gamma_constraint": null}, "name": "BN_125", "inbound_nodes": [[["convn_125", 0, 0, {}]]]}, {"class_name": "LeakyReLU", "config": {"name": "leaky_125", "trainable": true, "dtype": "float32", "alpha": 0.10000000149011612}, "name": "leaky_125", "inbound_nodes": [[["BN_125", 0, 0, {}]]]}, {"class_name": "Conv2D", "config": {"name": "convn_126", "trainable": true, "dtype": "float32", "filters": 256, "kernel_size": [1, 1], "strides": [1, 1], "padding": "same", "data_format": "channels_last", "dilation_rate": [1, 1], "groups": 1, "activation": "linear", "use_bias": true, "kernel_initializer": {"class_name": "GlorotUniform", "config": {"seed": null}}, "bias_initializer": {"class_name": "Zeros", "config": {}}, "kernel_regularizer": null, "bias_regularizer": null, "activity_regularizer": null, "kernel_constraint": null, "bias_constraint": null}, "name": "convn_126", "inbound_nodes": [[["leaky_125", 0, 0, {}]]]}, {"class_name": "BatchNormalization", "config": {"name": "BN_126", "trainable": true, "dtype": "float32", "axis": [3], "momentum": 0.99, "epsilon": 0.001, "center": true, "scale": true, "beta_initializer": {"class_name": "Zeros", "config": {}}, "gamma_initializer": {"class_name": "Ones", "config": {}}, "moving_mean_initializer": {"class_name": "Zeros", "config": {}}, "moving_variance_initializer": {"class_name": "Ones", "config": {}}, "beta_regularizer": null, "gamma_regularizer": null, "beta_constraint": null, "gamma_constraint": null}, "name": "BN_126", "inbound_nodes": [[["convn_126", 0, 0, {}]]]}, {"class_name": "LeakyReLU", "config": {"name": "leaky_126", "trainable": true, "dtype": "float32", "alpha": 0.10000000149011612}, "name": "leaky_126", "inbound_nodes": [[["BN_126", 0, 0, {}]]]}, {"class_name": "Conv2D", "config": {"name": "convn_127", "trainable": true, "dtype": "float32", "filters": 128, "kernel_size": [1, 1], "strides": [1, 1], "padding": "same", "data_format": "channels_last", "dilation_rate": [1, 1], "groups": 1, "activation": "linear", "use_bias": true, "kernel_initializer": {"class_name": "GlorotUniform", "config": {"seed": null}}, "bias_initializer": {"class_name": "Zeros", "config": {}}, "kernel_regularizer": null, "bias_regularizer": null, "activity_regularizer": null, "kernel_constraint": null, "bias_constraint": null}, "name": "convn_127", "inbound_nodes": [[["leaky_126", 0, 0, {}]]]}, {"class_name": "Conv2D", "config": {"name": "convn_130", "trainable": true, "dtype": "float32", "filters": 128, "kernel_size": [1, 1], "strides": [1, 1], "padding": "same", "data_format": "channels_last", "dilation_rate": [1, 1], "groups": 1, "activation": "linear", "use_bias": true, "kernel_initializer": {"class_name": "GlorotUniform", "config": {"seed": null}}, "bias_initializer": {"class_name": "Zeros", "config": {}}, "kernel_regularizer": null, "bias_regularizer": null, "activity_regularizer": null, "kernel_constraint": null, "bias_constraint": null}, "name": "convn_130", "inbound_nodes": [[["mish_54", 0, 0, {}]]]}, {"class_name": "BatchNormalization", "config": {"name": "BN_127", "trainable": true, "dtype": "float32", "axis": [3], "momentum": 0.99, "epsilon": 0.001, "center": true, "scale": true, "beta_initializer": {"class_name": "Zeros", "config": {}}, "gamma_initializer": {"class_name": "Ones", "config": {}}, "moving_mean_initializer": {"class_name": "Zeros", "config": {}}, "moving_variance_initializer": {"class_name": "Ones", "config": {}}, "beta_regularizer": null, "gamma_regularizer": null, "beta_constraint": null, "gamma_constraint": null}, "name": "BN_127", "inbound_nodes": [[["convn_127", 0, 0, {}]]]}, {"class_name": "BatchNormalization", "config": {"name": "BN_130", "trainable": true, "dtype": "float32", "axis": [3], "momentum": 0.99, "epsilon": 0.001, "center": true, "scale": true, "beta_initializer": {"class_name": "Zeros", "config": {}}, "gamma_initializer": {"class_name": "Ones", "config": {}}, "moving_mean_initializer": {"class_name": "Zeros", "config": {}}, "moving_variance_initializer": {"class_name": "Ones", "config": {}}, "beta_regularizer": null, "gamma_regularizer": null, "beta_constraint": null, "gamma_constraint": null}, "name": "BN_130", "inbound_nodes": [[["convn_130", 0, 0, {}]]]}, {"class_name": "LeakyReLU", "config": {"name": "leaky_127", "trainable": true, "dtype": "float32", "alpha": 0.10000000149011612}, "name": "leaky_127", "inbound_nodes": [[["BN_127", 0, 0, {}]]]}, {"class_name": "LeakyReLU", "config": {"name": "leaky_130", "trainable": true, "dtype": "float32", "alpha": 0.10000000149011612}, "name": "leaky_130", "inbound_nodes": [[["BN_130", 0, 0, {}]]]}, {"class_name": "UpSampling2D", "config": {"name": "upsamp_128", "trainable": true, "dtype": "float32", "size": [2, 2], "data_format": "channels_last", "interpolation": "nearest"}, "name": "upsamp_128", "inbound_nodes": [[["leaky_127", 0, 0, {}]]]}, {"class_name": "Concatenate", "config": {"name": "concat_131", "trainable": true, "dtype": "float32", "axis": -1}, "name": "concat_131", "inbound_nodes": [[["leaky_130", 0, 0, {}], ["upsamp_128", 0, 0, {}]]]}, {"class_name": "Conv2D", "config": {"name": "convn_132", "trainable": true, "dtype": "float32", "filters": 128, "kernel_size": [1, 1], "strides": [1, 1], "padding": "same", "data_format": "channels_last", "dilation_rate": [1, 1], "groups": 1, "activation": "linear", "use_bias": true, "kernel_initializer": {"class_name": "GlorotUniform", "config": {"seed": null}}, "bias_initializer": {"class_name": "Zeros", "config": {}}, "kernel_regularizer": null, "bias_regularizer": null, "activity_regularizer": null, "kernel_constraint": null, "bias_constraint": null}, "name": "convn_132", "inbound_nodes": [[["concat_131", 0, 0, {}]]]}, {"class_name": "BatchNormalization", "config": {"name": "BN_132", "trainable": true, "dtype": "float32", "axis": [3], "momentum": 0.99, "epsilon": 0.001, "center": true, "scale": true, "beta_initializer": {"class_name": "Zeros", "config": {}}, "gamma_initializer": {"class_name": "Ones", "config": {}}, "moving_mean_initializer": {"class_name": "Zeros", "config": {}}, "moving_variance_initializer": {"class_name": "Ones", "config": {}}, "beta_regularizer": null, "gamma_regularizer": null, "beta_constraint": null, "gamma_constraint": null}, "name": "BN_132", "inbound_nodes": [[["convn_132", 0, 0, {}]]]}, {"class_name": "LeakyReLU", "config": {"name": "leaky_132", "trainable": true, "dtype": "float32", "alpha": 0.10000000149011612}, "name": "leaky_132", "inbound_nodes": [[["BN_132", 0, 0, {}]]]}, {"class_name": "Conv2D", "config": {"name": "convn_133", "trainable": true, "dtype": "float32", "filters": 256, "kernel_size": [3, 3], "strides": [1, 1], "padding": "same", "data_format": "channels_last", "dilation_rate": [1, 1], "groups": 1, "activation": "linear", "use_bias": true, "kernel_initializer": {"class_name": "GlorotUniform", "config": {"seed": null}}, "bias_initializer": {"class_name": "Zeros", "config": {}}, "kernel_regularizer": null, "bias_regularizer": null, "activity_regularizer": null, "kernel_constraint": null, "bias_constraint": null}, "name": "convn_133", "inbound_nodes": [[["leaky_132", 0, 0, {}]]]}, {"class_name": "BatchNormalization", "config": {"name": "BN_133", "trainable": true, "dtype": "float32", "axis": [3], "momentum": 0.99, "epsilon": 0.001, "center": true, "scale": true, "beta_initializer": {"class_name": "Zeros", "config": {}}, "gamma_initializer": {"class_name": "Ones", "config": {}}, "moving_mean_initializer": {"class_name": "Zeros", "config": {}}, "moving_variance_initializer": {"class_name": "Ones", "config": {}}, "beta_regularizer": null, "gamma_regularizer": null, "beta_constraint": null, "gamma_constraint": null}, "name": "BN_133", "inbound_nodes": [[["convn_133", 0, 0, {}]]]}, {"class_name": "LeakyReLU", "config": {"name": "leaky_133", "trainable": true, "dtype": "float32", "alpha": 0.10000000149011612}, "name": "leaky_133", "inbound_nodes": [[["BN_133", 0, 0, {}]]]}, {"class_name": "Conv2D", "config": {"name": "convn_134", "trainable": true, "dtype": "float32", "filters": 128, "kernel_size": [1, 1], "strides": [1, 1], "padding": "same", "data_format": "channels_last", "dilation_rate": [1, 1], "groups": 1, "activation": "linear", "use_bias": true, "kernel_initializer": {"class_name": "GlorotUniform", "config": {"seed": null}}, "bias_initializer": {"class_name": "Zeros", "config": {}}, "kernel_regularizer": null, "bias_regularizer": null, "activity_regularizer": null, "kernel_constraint": null, "bias_constraint": null}, "name": "convn_134", "inbound_nodes": [[["leaky_133", 0, 0, {}]]]}, {"class_name": "BatchNormalization", "config": {"name": "BN_134", "trainable": true, "dtype": "float32", "axis": [3], "momentum": 0.99, "epsilon": 0.001, "center": true, "scale": true, "beta_initializer": {"class_name": "Zeros", "config": {}}, "gamma_initializer": {"class_name": "Ones", "config": {}}, "moving_mean_initializer": {"class_name": "Zeros", "config": {}}, "moving_variance_initializer": {"class_name": "Ones", "config": {}}, "beta_regularizer": null, "gamma_regularizer": null, "beta_constraint": null, "gamma_constraint": null}, "name": "BN_134", "inbound_nodes": [[["convn_134", 0, 0, {}]]]}, {"class_name": "LeakyReLU", "config": {"name": "leaky_134", "trainable": true, "dtype": "float32", "alpha": 0.10000000149011612}, "name": "leaky_134", "inbound_nodes": [[["BN_134", 0, 0, {}]]]}, {"class_name": "Conv2D", "config": {"name": "convn_135", "trainable": true, "dtype": "float32", "filters": 256, "kernel_size": [3, 3], "strides": [1, 1], "padding": "same", "data_format": "channels_last", "dilation_rate": [1, 1], "groups": 1, "activation": "linear", "use_bias": true, "kernel_initializer": {"class_name": "GlorotUniform", "config": {"seed": null}}, "bias_initializer": {"class_name": "Zeros", "config": {}}, "kernel_regularizer": null, "bias_regularizer": null, "activity_regularizer": null, "kernel_constraint": null, "bias_constraint": null}, "name": "convn_135", "inbound_nodes": [[["leaky_134", 0, 0, {}]]]}, {"class_name": "BatchNormalization", "config": {"name": "BN_135", "trainable": true, "dtype": "float32", "axis": [3], "momentum": 0.99, "epsilon": 0.001, "center": true, "scale": true, "beta_initializer": {"class_name": "Zeros", "config": {}}, "gamma_initializer": {"class_name": "Ones", "config": {}}, "moving_mean_initializer": {"class_name": "Zeros", "config": {}}, "moving_variance_initializer": {"class_name": "Ones", "config": {}}, "beta_regularizer": null, "gamma_regularizer": null, "beta_constraint": null, "gamma_constraint": null}, "name": "BN_135", "inbound_nodes": [[["convn_135", 0, 0, {}]]]}, {"class_name": "LeakyReLU", "config": {"name": "leaky_135", "trainable": true, "dtype": "float32", "alpha": 0.10000000149011612}, "name": "leaky_135", "inbound_nodes": [[["BN_135", 0, 0, {}]]]}, {"class_name": "Conv2D", "config": {"name": "convn_136", "trainable": true, "dtype": "float32", "filters": 128, "kernel_size": [1, 1], "strides": [1, 1], "padding": "same", "data_format": "channels_last", "dilation_rate": [1, 1], "groups": 1, "activation": "linear", "use_bias": true, "kernel_initializer": {"class_name": "GlorotUniform", "config": {"seed": null}}, "bias_initializer": {"class_name": "Zeros", "config": {}}, "kernel_regularizer": null, "bias_regularizer": null, "activity_regularizer": null, "kernel_constraint": null, "bias_constraint": null}, "name": "convn_136", "inbound_nodes": [[["leaky_135", 0, 0, {}]]]}, {"class_name": "BatchNormalization", "config": {"name": "BN_136", "trainable": true, "dtype": "float32", "axis": [3], "momentum": 0.99, "epsilon": 0.001, "center": true, "scale": true, "beta_initializer": {"class_name": "Zeros", "config": {}}, "gamma_initializer": {"class_name": "Ones", "config": {}}, "moving_mean_initializer": {"class_name": "Zeros", "config": {}}, "moving_variance_initializer": {"class_name": "Ones", "config": {}}, "beta_regularizer": null, "gamma_regularizer": null, "beta_constraint": null, "gamma_constraint": null}, "name": "BN_136", "inbound_nodes": [[["convn_136", 0, 0, {}]]]}, {"class_name": "LeakyReLU", "config": {"name": "leaky_136", "trainable": true, "dtype": "float32", "alpha": 0.10000000149011612}, "name": "leaky_136", "inbound_nodes": [[["BN_136", 0, 0, {}]]]}, {"class_name": "ZeroPadding2D", "config": {"name": "zerop_141", "trainable": true, "dtype": "float32", "padding": [[1, 0], [1, 0]], "data_format": "channels_last"}, "name": "zerop_141", "inbound_nodes": [[["leaky_136", 0, 0, {}]]]}, {"class_name": "Conv2D", "config": {"name": "convn_141", "trainable": true, "dtype": "float32", "filters": 256, "kernel_size": [3, 3], "strides": [2, 2], "padding": "valid", "data_format": "channels_last", "dilation_rate": [1, 1], "groups": 1, "activation": "linear", "use_bias": true, "kernel_initializer": {"class_name": "GlorotUniform", "config": {"seed": null}}, "bias_initializer": {"class_name": "Zeros", "config": {}}, "kernel_regularizer": null, "bias_regularizer": null, "activity_regularizer": null, "kernel_constraint": null, "bias_constraint": null}, "name": "convn_141", "inbound_nodes": [[["zerop_141", 0, 0, {}]]]}, {"class_name": "BatchNormalization", "config": {"name": "BN_141", "trainable": true, "dtype": "float32", "axis": [3], "momentum": 0.99, "epsilon": 0.001, "center": true, "scale": true, "beta_initializer": {"class_name": "Zeros", "config": {}}, "gamma_initializer": {"class_name": "Ones", "config": {}}, "moving_mean_initializer": {"class_name": "Zeros", "config": {}}, "moving_variance_initializer": {"class_name": "Ones", "config": {}}, "beta_regularizer": null, "gamma_regularizer": null, "beta_constraint": null, "gamma_constraint": null}, "name": "BN_141", "inbound_nodes": [[["convn_141", 0, 0, {}]]]}, {"class_name": "LeakyReLU", "config": {"name": "leaky_141", "trainable": true, "dtype": "float32", "alpha": 0.10000000149011612}, "name": "leaky_141", "inbound_nodes": [[["BN_141", 0, 0, {}]]]}, {"class_name": "Concatenate", "config": {"name": "concat_142", "traina…
convn_159", 0, 0, {}]]]}, {"class_name": "LeakyReLU", "config": {"name": "leaky_137", "trainable": true, "dtype": "float32", "alpha": 0.10000000149011612}, "name": "leaky_137", "inbound_nodes": [[["BN_137", 0, 0, {}]]]}, {"class_name": "LeakyReLU", "config": {"name": "leaky_148", "trainable": true, "dtype": "float32", "alpha": 0.10000000149011612}, "name": "leaky_148", "inbound_nodes": [[["BN_148", 0, 0, {}]]]}, {"class_name": "LeakyReLU", "config": {"name": "leaky_159", "trainable": true, "dtype": "float32", "alpha": 0.10000000149011612}, "name": "leaky_159", "inbound_nodes": [[["BN_159", 0, 0, {}]]]}, {"class_name": "Conv2D", "config": {"name": "convn_138", "trainable": true, "dtype": "float32", "filters": 18, "kernel_size": [1, 1], "strides": [1, 1], "padding": "same", "data_format": "channels_last", "dilation_rate": [1, 1], "groups": 1, "activation": "linear", "use_bias": true, "kernel_initializer": {"class_name": "GlorotUniform", "config": {"seed": null}}, "bias_initializer": {"class_name": "Zeros", "config": {}}, "kernel_regularizer": null, "bias_regularizer": null, "activity_regularizer": null, "kernel_constraint": null, "bias_constraint": null}, "name": "convn_138", "inbound_nodes": [[["leaky_137", 0, 0, {}]]]}, {"class_name": "Conv2D", "config": {"name": "convn_149", "trainable": true, "dtype": "float32", "filters": 18, "kernel_size": [1, 1], "strides": [1, 1], "padding": "same", "data_format": "channels_last", "dilation_rate": [1, 1], "groups": 1, "activation": "linear", "use_bias": true, "kernel_initializer": {"class_name": "GlorotUniform", "config": {"seed": null}}, "bias_initializer": {"class_name": "Zeros", "config": {}}, "kernel_regularizer": null, "bias_regularizer": null, "activity_regularizer": null, "kernel_constraint": null, "bias_constraint": null}, "name": "convn_149", "inbound_nodes": [[["leaky_148", 0, 0, {}]]]}, {"class_name": "Conv2D", "config": {"name": "convn_160", "trainable": true, "dtype": "float32", "filters": 18, "kernel_size": [1, 1], "strides": [1, 1], "padding": "same", "data_format": "channels_last", "dilation_rate": [1, 1], "groups": 1, "activation": "linear", "use_bias": true, "kernel_initializer": {"class_name": "GlorotUniform", "config": {"seed": null}}, "bias_initializer": {"class_name": "Zeros", "config": {}}, "kernel_regularizer": null, "bias_regularizer": null, "activity_regularizer": null, "kernel_constraint": null, "bias_constraint": null}, "name": "convn_160", "inbound_nodes": [[["leaky_159", 0, 0, {}]]]}, {"class_name": "BatchNormalization", "config": {"name": "BN_138", "trainable": true, "dtype": "float32", "axis": [3], "momentum": 0.99, "epsilon": 0.001, "center": true, "scale": true, "beta_initializer": {"class_name": "Zeros", "config": {}}, "gamma_initializer": {"class_name": "Ones", "config": {}}, "moving_mean_initializer": {"class_name": "Zeros", "config": {}}, "moving_variance_initializer": {"class_name": "Ones", "config": {}}, "beta_regularizer": null, "gamma_regularizer": null, "beta_constraint": null, "gamma_constraint": null}, "name": "BN_138", "inbound_nodes": [[["convn_138", 0, 0, {}]]]}, {"class_name": "BatchNormalization", "config": {"name": "BN_149", "trainable": true, "dtype": "float32", "axis": [3], "momentum": 0.99, "epsilon": 0.001, "center": true, "scale": true, "beta_initializer": {"class_name": "Zeros", "config": {}}, "gamma_initializer": {"class_name": "Ones", "config": {}}, "moving_mean_initializer": {"class_name": "Zeros", "config": {}}, "moving_variance_initializer": {"class_name": "Ones", "config": {}}, "beta_regularizer": null, "gamma_regularizer": null, "beta_constraint": null, "gamma_constraint": null}, "name": "BN_149", "inbound_nodes": [[["convn_149", 0, 0, {}]]]}, {"class_name": "BatchNormalization", "config": {"name": "BN_160", "trainable": true, "dtype": "float32", "axis": [3], "momentum": 0.99, "epsilon": 0.001, "center": true, "scale": true, "beta_initializer": {"class_name": "Zeros", "config": {}}, "gamma_initializer": {"class_name": "Ones", "config": {}}, "moving_mean_initializer": {"class_name": "Zeros", "config": {}}, "moving_variance_initializer": {"class_name": "Ones", "config": {}}, "beta_regularizer": null, "gamma_regularizer": null, "beta_constraint": null, "gamma_constraint": null}, "name": "BN_160", "inbound_nodes": [[["convn_160", 0, 0, {}]]]}], "input_layers": [["input_0", 0, 0]], "output_layers": [["BN_138", 0, 0], ["BN_149", 0, 0], ["BN_160", 0, 0]]}}}, "weightsManifest": [{"paths": ["group1-shard1of62.bin", "group1-shard2of62.bin", "group1-shard3of62.bin", "group1-shard4of62.bin", "group1-shard5of62.bin", "group1-shard6of62.bin", "group1-shard7of62.bin", "group1-shard8of62.bin", "group1-shard9of62.bin", "group1-shard10of62.bin", "group1-shard11of62.bin", "group1-shard12of62.bin", "group1-shard13of62.bin", "group1-shard14of62.bin", "group1-shard15of62.bin", "group1-shard16of62.bin", "group1-shard17of62.bin", "group1-shard18of62.bin", "group1-shard19of62.bin", "group1-shard20of62.bin", "group1-shard21of62.bin", "group1-shard22of62.bin", "group1-shard23of62.bin", "group1-shard24of62.bin", "group1-shard25of62.bin", "group1-shard26of62.bin", "group1-shard27of62.bin", "group1-shard28of62.bin", "group1-shard29of62.bin", "group1-shard30of62.bin", "group1-shard31of62.bin", "group1-shard32of62.bin", "group1-shard33of62.bin", "group1-shard34of62.bin", "group1-shard35of62.bin", "group1-shard36of62.bin", "group1-shard37of62.bin", "group1-shard38of62.bin", "group1-shard39of62.bin", "group1-shard40of62.bin", "group1-shard41of62.bin", "group1-shard42of62.bin", "group1-shard43of62.bin", "group1-shard44of62.bin", "group1-shard45of62.bin", "group1-shard46of62.bin", "group1-shard47of62.bin", "group1-shard48of62.bin", "group1-shard49of62.bin", "group1-shard50of62.bin", "group1-shard51of62.bin", "group1-shard52of62.bin", "group1-shard53of62.bin", "group1-shard54of62.bin", "group1-shard55of62.bin", "group1-shard56of62.bin", "group1-shard57of62.bin", "group1-shard58of62.bin", "group1-shard59of62.bin", "group1-shard60of62.bin", "group1-shard61of62.bin", "group1-shard62of62.bin"], "weights": [{"name": "BN_0/gamma", "shape": [32], "dtype": "float32"}, {"name": "BN_0/beta", "shape": [32], "dtype": "float32"}, {"name": "BN_0/moving_mean", "shape": [32], "dtype": "float32"}, {"name": "BN_0/moving_variance", "shape": [32], "dtype": "float32"}, {"name": "BN_1/gamma", "shape": [64], "dtype": "float32"}, {"name": "BN_1/beta", "shape": [64], "dtype": "float32"}, {"name": "BN_1/moving_mean", "shape": [64], "dtype": "float32"}, {"name": "BN_1/moving_variance", "shape": [64], "dtype": "float32"}, {"name": "BN_10/gamma", "shape": [64], "dtype": "float32"}, {"name": "BN_10/beta", "shape": [64], "dtype": "float32"}, {"name": "BN_10/moving_mean", "shape": [64], "dtype": "float32"}, {"name": "BN_10/moving_variance", "shape": [64], "dtype": "float32"}, {"name": "BN_100/gamma", "shape": [512], "dtype": "float32"}, {"name": "BN_100/beta", "shape": [512], "dtype": "float32"}, {"name": "BN_100/moving_mean", "shape": [512], "dtype": "float32"}, {"name": "BN_100/moving_variance", "shape": [512], "dtype": "float32"}, {"name": "BN_102/gamma", "shape": [512], "dtype": "float32"}, {"name": "BN_102/beta", "shape": [512], "dtype": "float32"}, {"name": "BN_102/moving_mean", "shape": [512], "dtype": "float32"}, {"name": "BN_102/moving_variance", "shape": [512], "dtype": "float32"}, {"name": "BN_104/gamma", "shape": [1024], "dtype": "float32"}, {"name": "BN_104/beta", "shape": [1024], "dtype": "float32"}, {"name": "BN_104/moving_mean", "shape": [1024], "dtype": "float32"}, {"name": "BN_104/moving_variance", "shape": [1024], "dtype": "float32"}, {"name": "BN_105/gamma", "shape": [512], "dtype": "float32"}, {"name": "BN_105/beta", "shape": [512], "dtype": "float32"}, {"name": "BN_105/moving_mean", "shape": [512], "dtype": "float32"}, {"name": "BN_105/moving_variance", "shape": [512], "dtype": "float32"}, {"name": "BN_106/gamma", "shape": [1024], "dtype": "float32"}, {"name": "BN_106/beta", "shape": [1024], "dtype": "float32"}, {"name": "BN_106/moving_mean", "shape": [1024], "dtype": "float32"}, {"name": "BN_106/moving_variance", "shape": [1024], "dtype": "float32"}, {"name": "BN_107/gamma", "shape": [512], "dtype": "float32"}, {"name": "BN_107/beta", "shape": [512], "dtype": "float32"}, {"name": "BN_107/moving_mean", "shape": [512], "dtype": "float32"}, {"name": "BN_107/moving_variance", "shape": [512], "dtype": "float32"}, {"name": "BN_11/gamma", "shape": [128], "dtype": "float32"}, {"name": "BN_11/beta", "shape": [128], "dtype": "float32"}, {"name": "BN_11/moving_mean", "shape": [128], "dtype": "float32"}, {"name": "BN_11/moving_variance", "shape": [128], "dtype": "float32"}, {"name": "BN_114/gamma", "shape": [512], "dtype": "float32"}, {"name": "BN_114/beta", "shape": [512], "dtype": "float32"}, {"name": "BN_114/moving_mean", "shape": [512], "dtype": "float32"}, {"name": "BN_114/moving_variance", "shape": [512], "dtype": "float32"}, {"name": "BN_115/gamma", "shape": [1024], "dtype": "float32"}, {"name": "BN_115/beta", "shape": [1024], "dtype": "float32"}, {"name": "BN_115/moving_mean", "shape": [1024], "dtype": "float32"}, {"name": "BN_115/moving_variance", "shape": [1024], "dtype": "float32"}, {"name": "BN_116/gamma", "shape": [512], "dtype": "float32"}, {"name": "BN_116/beta", "shape": [512], "dtype": "float32"}, {"name": "BN_116/moving_mean", "shape": [512], "dtype": "float32"}, {"name": "BN_116/moving_variance", "shape": [512], "dtype": "float32"}, {"name": "BN_117/gamma", "shape": [256], "dtype": "float32"}, {"name": "BN_117/beta", "shape": [256], "dtype": "float32"}, {"name": "BN_117/moving_mean", "shape": [256], "dtype": "float32"}, {"name": "BN_117/moving_variance", "shape": [256], "dtype": "float32"}, {"name": "BN_12/gamma", "shape": [64], "dtype": "float32"}, {"name": "BN_12/beta", "shape": [64], "dtype": "float32"}, {"name": "BN_12/moving_mean", "shape": [64], "dtype": "float32"}, {"name": "BN_12/moving_variance", "shape": [64], "dtype": "float32"}, {"name": "BN_120/gamma", "shape": [256], "dtype": "float32"}, {"name": "BN_120/beta", "shape": [256], "dtype": "float32"}, {"name": "BN_120/moving_mean", "shape": [256], "dtype": "float32"}, {"name": "BN_120/moving_variance", "shape": [256], "dtype": "float32"}, {"name": "BN_122/gamma", "shape": [256], "dtype": "float32"}, {"name": "BN_122/beta", "shape": [256], "dtype": "float32"}, {"name": "BN_122/moving_mean", "shape": [256], "dtype": "float32"}, {"name": "BN_122/moving_variance", "shape": [256], "dtype": "float32"}, {"name": "BN_123/gamma", "shape": [512], "dtype": "float32"}, {"name": "BN_123/beta", "shape": [512], "dtype": "float32"}, {"name": "BN_123/moving_mean", "shape": [512], "dtype": "float32"}, {"name": "BN_123/moving_variance", "shape": [512], "dtype": "float32"}, {"name": "BN_124/gamma", "shape": [256], "dtype": "float32"}, {"name": "BN_124/beta", "shape": [256], "dtype": "float32"}, {"name": "BN_124/moving_mean", "shape": [256], "dtype": "float32"}, {"name": "BN_124/moving_variance", "shape": [256], "dtype": "float32"}, {"name": "BN_125/gamma", "shape": [512], "dtype": "float32"}, {"name": "BN_125/beta", "shape": [512], "dtype": "float32"}, {"name": "BN_125/moving_mean", "shape": [512], "dtype": "float32"}, {"name": "BN_125/moving_variance", "shape": [512], "dtype": "float32"}, {"name": "BN_126/gamma", "shape": [256], "dtype": "float32"}, {"name": "BN_126/beta", "shape": [256], "dtype": "float32"}, {"name": "BN_126/moving_mean", "shape": [256], "dtype": "float32"}, {"name": "BN_126/moving_variance", "shape": [256], "dtype": "float32"}, {"name": "BN_127/gamma", "shape": [128], "dtype": "float32"}, {"name": "BN_127/beta", "shape": [128], "dtype": "float32"}, {"name": "BN_127/moving_mean", "shape": [128], "dtype": "float32"}, {"name": "BN_127/moving_variance", "shape": [128], "dtype": "float32"}, {"name": "BN_130/gamma", "shape": [128], "dtype": "float32"}, {"name": "BN_130/beta", "shape": [128], "dtype": "float32"}, {"name": "BN_130/moving_mean", "shape": [128], "dtype": "float32"}, {"name": "BN_130/moving_variance", "shape": [128], "dtype": "float32"}, {"name": "BN_132/gamma", "shape": [128], "dtype": "float32"}, {"name": "BN_132/beta", "shape": [128], "dtype": "float32"}, {"name": "BN_132/moving_mean", "shape": [128], "dtype": "float32"}, {"name": "BN_132/moving_variance", "shape": [128], "dtype": "float32"}, {"name": "BN_133/gamma", "shape": [256], "dtype": "float32"}, {"name": "BN_133/beta", "shape": [256], "dtype": "float32"}, {"name": "BN_133/moving_mean", "shape": [256], "dtype": "float32"}, {"name": "BN_133/moving_variance", "shape": [256], "dtype": "float32"}, {"name": "BN_134/gamma", "shape": [128], "dtype": "float32"}, {"name": "BN_134/beta", "shape": [128], "dtype": "float32"}, {"name": "BN_134/moving_mean", "shape": [128], "dtype": "float32"}, {"name": "BN_134/moving_variance", "shape": [128], "dtype": "float32"}, {"name": "BN_135/gamma", "shape": [256], "dtype": "float32"}, {"name": "BN_135/beta", "shape": [256], "dtype": "float32"}, {"name": "BN_135/moving_mean", "shape": [256], "dtype": "float32"}, {"name": "BN_135/moving_variance", "shape": [256], "dtype": "float32"}, {"name": "BN_136/gamma", "shape": [128], "dtype": "float32"}, {"name": "BN_136/beta", "shape": [128], "dtype": "float32"}, {"name": "BN_136/moving_mean", "shape": [128], "dtype": "float32"}, {"name": "BN_136/moving_variance", "shape": [128], "dtype": "float32"}, {"name": "BN_137/gamma", "shape": [256], "dtype": "float32"}, {"name": "BN_137/beta", "shape": [256], "dtype": "float32"}, {"name": "BN_137/moving_mean", "shape": [256], "dtype": "float32"}, {"name": "BN_137/moving_variance", "shape": [256], "dtype": "float32"}, {"name": "BN_138/gamma", "shape": [18], "dtype": "float32"}, {"name": "BN_138/beta", "shape": [18], "dtype": "float32"}, {"name": "BN_138/moving_mean", "shape": [18], "dtype": "float32"}, {"name": "BN_138/moving_variance", "shape": [18], "dtype": "float32"}, {"name": "BN_14/gamma", "shape": [64], "dtype": "float32"}, {"name": "BN_14/beta", "shape": [64], "dtype": "float32"}, {"name": "BN_14/moving_mean", "shape": [64], "dtype": "float32"}, {"name": "BN_14/moving_variance", "shape": [64], "dtype": "float32"}, {"name": "BN_141/gamma", "shape": [256], "dtype": "float32"}, {"name": "BN_141/beta", "shape": [256], "dtype": "float32"}, {"name": "BN_141/moving_mean", "shape": [256], "dtype": "float32"}, {"name": "BN_141/moving_variance", "shape": [256], "dtype": "float32"}, {"name": "BN_143/gamma", "shape": [256], "dtype": "float32"}, {"name": "BN_143/beta", "shape": [256], "dtype": "float32"}, {"name": "BN_143/moving_mean", "shape": [256], "dtype": "float32"}, {"name": "BN_143/moving_variance", "shape": [256], "dtype": "float32"}, {"name": "BN_144/gamma", "shape": [512], "dtype": "float32"}, {"name": "BN_144/beta", "shape": [512], "dtype": "float32"}, {"name": "BN_144/moving_mean", "shape": [512], "dtype": "float32"}, {"name": "BN_144/moving_variance", "shape": [512], "dtype": "float32"}, {"name": "BN_145/gamma", "shape": [256], "dtype": "float32"}, {"name": "BN_145/beta", "shape": [256], "dtype": "float32"}, {"name": "BN_145/moving_mean", "shape": [256], "dtype": "float32"}, {"name": "BN_145/moving_variance", "shape": [256], "dtype": "float32"}, {"name": "BN_146/gamma", "shape": [512], "dtype": "float32"}, {"name": "BN_146/beta", "shape": [512], "dtype": "float32"}, {"name": "BN_146/moving_mean", "shape": [512], "dtype": "float32"}, {"name": "BN_146/moving_variance", "shape": [512], "dtype": "float32"}, {"name": "BN_147/gamma", "shape": [256], "dtype": "float32"}, {"name": "BN_147/beta", "shape": [256], "dtype": "float32"}, {"name": "BN_147/moving_mean", "shape": [256], "dtype": "float32"}, {"name": "BN_147/moving_variance", "shape": [256], "dtype": "float32"}, {"name": "BN_148/gamma", "shape": [512], "dtype": "float32"}, {"name": "BN_148/beta", "shape": [512], "dtype": "float32"}, {"name": "BN_148/moving_mean", "shape": [512], "dtype": "float32"}, {"name": "BN_148/moving_variance", "shape": [512], "dtype": "float32"}, {"name": "BN_149/gamma", "shape": [18], "dtype": "float32"}, {"name": "BN_149/beta", "shape": [18], "dtype": "float32"}, {"name": "BN_149/moving_mean", "shape": [18], "dtype": "float32"}, {"name": "BN_149/moving_variance", "shape": [18], "dtype": "float32"}, {"name": "BN_15/gamma", "shape": [64], "dtype": "float32"}, {"name": "BN_15/beta", "shape": [64], "dtype": "float32"}, {"name": "BN_15/moving_mean", "shape": [64], "dtype": "float32"}, {"name": "BN_15/moving_variance", "shape": [64], "dtype": "float32"}, {"name": "BN_152/gamma", "shape": [512], "dtype": "float32"}, {"name": "BN_152/beta", "shape": [512], "dtype": "float32"}, {"name": "BN_152/moving_mean", "shape": [512], "dtype": "float32"}, {"name": "BN_152/moving_variance", "shape": [512], "dtype": "float32"}, {"name": "BN_154/gamma", "shape": [512], "dtype": "float32"}, {"name": "BN_154/beta", "shape": [512], "dtype": "float32"}, {"name": "BN_154/moving_mean", "shape": [512], "dtype": "float32"}, {"name": "BN_154/moving_variance", "shape": [512], "dtype": "float32"}, {"name": "BN_155/gamma", "shape": [1024], "dtype": "float32"}, {"name": "BN_155/beta", "shape": [1024], "dtype": "float32"}, {"name": "BN_155/moving_mean", "shape": [1024], "dtype": "float32"}, {"name": "BN_155/moving_variance", "shape": [1024], "dtype": "float32"}, {"name": "BN_156/gamma", "shape": [512], "dtype": "float32"}, {"name": "BN_156/beta", "shape": [512], "dtype": "float32"}, {"name": "BN_156/moving_mean", "shape": [512], "dtype": "float32"}, {"name": "BN_156/moving_variance", "shape": [512], "dtype": "float32"}, {"name": "BN_157/gamma", "shape": [1024], "dtype": "float32"}, {"name": "BN_157/beta", "shape": [1024], "dtype": "float32"}, {"name": "BN_157/moving_mean", "shape": [1024], "dtype": "float32"}, {"name": "BN_157/moving_variance", "shape": [1024], "dtype": "float32"}, {"name": "BN_158/gamma", "shape": [512], "dtype": "float32"}, {"name": "BN_158/beta", "shape": [512], "dtype": "float32"}, {"name": "BN_158/moving_mean", "shape": [512], "dtype": "float32"}, {"name": "BN_158/moving_variance", "shape": [512], "dtype": "float32"}, {"name": "BN_159/gamma", "shape": [1024], "dtype": "float32"}, {"name": "BN_159/beta", "shape": [1024], "dtype": "float32"}, {"name": "BN_159/moving_mean", "shape": [1024], "dtype": "float32"}, {"name": "BN_159/moving_variance", "shape": [1024], "dtype": "float32"}, {"name": "BN_16/gamma", "shape": [64], "dtype": "float32"}, {"name": "BN_16/beta", "shape": [64], "dtype": "float32"}, {"name": "BN_16/moving_mean", "shape": [64], "dtype": "float32"}, {"name": "BN_16/moving_variance", "shape": [64], "dtype": "float32"}, {"name": "BN_160/gamma", "shape": [18], "dtype": "float32"}, {"name": "BN_160/beta", "shape": [18], "dtype": "float32"}, {"name": "BN_160/moving_mean", "shape": [18], "dtype": "float32"}, {"name": "BN_160/moving_variance", "shape": [18], "dtype": "float32"}, {"name": "BN_18/gamma", "shape": [64], "dtype": "float32"}, {"name": "BN_18/beta", "shape": [64], "dtype": "float32"}, {"name": "BN_18/moving_mean", "shape": [64], "dtype": "float32"}, {"name": "BN_18/moving_variance", "shape": [64], "dtype": "float32"}, {"name": "BN_19/gamma", "shape": [64], "dtype": "float32"}, {"name": "BN_19/beta", "shape": [64], "dtype": "float32"}, {"name": "BN_19/moving_mean", "shape": [64], "dtype": "float32"}, {"name": "BN_19/moving_variance", "shape": [64], "dtype": "float32"}, {"name": "BN_2/gamma", "shape": [64], "dtype": "float32"}, {"name": "BN_2/beta", "shape": [64], "dtype": "float32"}, {"name": "BN_2/moving_mean", "shape": [64], "dtype": "float32"}, {"name": "BN_2/moving_variance", "shape": [64], "dtype": "float32"}, {"name": "BN_21/gamma", "shape": [64], "dtype": "float32"}, {"name": "BN_21/beta", "shape": [64], "dtype": "float32"}, {"name": "BN_21/moving_mean", "shape": [64], "dtype": "float32"}, {"name": "BN_21/moving_variance", "shape": [64], "dtype": "float32"}, {"name": "BN_23/gamma", "shape": [128], "dtype": "float32"}, {"name": "BN_23/beta", "shape": [128], "dtype": "float32"}, {"name": "BN_23/moving_mean", "shape": [128], "dtype": "float32"}, {"name": "BN_23/moving_variance", "shape": [128], "dtype": "float32"}, {"name": "BN_24/gamma", "shape": [256], "dtype": "float32"}, {"name": "BN_24/beta", "shape": [256], "dtype": "float32"}, {"name": "BN_24/moving_mean", "shape": [256], "dtype": "float32"}, {"name": "BN_24/moving_variance", "shape": [256], "dtype": "float32"}, {"name": "BN_25/gamma", "shape": [128], "dtype": "float32"}, {"name": "BN_25/beta", "shape": [128], "dtype": "float32"}, {"name": "BN_25/moving_mean", "shape": [128], "dtype": "float32"}, {"name": "BN_25/moving_variance", "shape": [128], "dtype": "float32"}, {"name": "BN_27/gamma", "shape": [128], "dtype": "float32"}, {"name": "BN_27/beta", "shape": [128], "dtype": "float32"}, {"name": "BN_27/moving_mean", "shape": [128], "dtype": "float32"}, {"name": "BN_27/moving_variance", "shape": [128], "dtype": "float32"}, {"name": "BN_28/gamma", "shape": [128], "dtype": "float32"}, {"name": "BN_28/beta", "shape": [128], "dtype": "float32"}, {"name": "BN_28/moving_mean", "shape": [128], "dtype": "float32"}, {"name": "BN_28/moving_variance", "shape": [128], "dtype": "float32"}, {"name": "BN_29/gamma", "shape": [128], "dtype": "float32"}, {"name": "BN_29/beta", "shape": [128], "dtype": "float32"}, {"name": "BN_29/moving_mean", "shape": [128], "dtype": "float32"}, {"name": "BN_29/moving_variance", "shape": [128], "dtype": "float32"}, {"name": "BN_31/gamma", "shape": [128], "dtype": "float32"}, {"name": "BN_31/beta", "shape": [128], "dtype": "float32"}, {"name": "BN_31/moving_mean", "shape": [128], "dtype": "float32"}, {"name": "BN_31/moving_variance", "shape": [128], "dtype": "float32"}, {"name": "BN_32/gamma", "shape": [128], "dtype": "float32"}, {"name": "BN_32/beta", "shape": [128], "dtype": "float32"}, {"name": "BN_32/moving_mean", "shape": [128], "dtype": "float32"}, {"name": "BN_32/moving_variance", "shape": [128], "dtype": "float32"}, {"name": "BN_34/gamma", "shape": [128], "dtype": "float32"}, {"name": "BN_34/beta", "shape": [128], "dtype": "float32"}, {"name": "BN_34/moving_mean", "shape": [128], "dtype": "float32"}, {"name": "BN_34/moving_variance", "shape": [128], "dtype": "float32"}, {"name": "BN_35/gamma", "shape": [128], "dtype": "float32"}, {"name": "BN_35/beta", "shape": [128], "dtype": "float32"}, {"name": "BN_35/moving_mean", "shape": [128], "dtype": "float32"}, {"name": "BN_35/moving_variance", "shape": [128], "dtype": "float32"}, {"name": "BN_37/gamma", "shape": [128], "dtype": "float32"}, {"name": "BN_37/beta", "shape": [128], "dtype": "float32"}, {"name": "BN_37/moving_mean", "shape": [128], "dtype": "float32"}, {"name": "BN_37/moving_variance", "shape": [128], "dtype": "float32"}, {"name": "BN_38/gamma", "shape": [128], "dtype": "float32"}, {"name": "BN_38/beta", "shape": [128], "dtype": "float32"}, {"name": "BN_38/moving_mean", "shape": [128], "dtype": "float32"}, {"name": "BN_38/moving_variance", "shape": [128], "dtype": "float32"}, {"name": "BN_4/gamma", "shape": [64], "dtype": "float32"}, {"name": "BN_4/beta", "shape": [64], "dtype": "float32"}, {"name": "BN_4/moving_mean", "shape": [64], "dtype": "float32"}, {"name": "BN_4/moving_variance", "shape": [64], "dtype": "float32"}, {"name": "BN_40/gamma", "shape": [128], "dtype": "float32"}, {"name": "BN_40/beta", "shape": [128], "dtype": "float32"}, {"name": "BN_40/moving_mean", "shape": [128], "dtype": "float32"}, {"name": "BN_40/moving_variance", "shape": [128], "dtype": "float32"}, {"name": "BN_41/gamma", "shape": [128], "dtype": "float32"}, {"name": "BN_41/beta", "shape": [128], "dtype": "float32"}, {"name": "BN_41/moving_mean", "shape": [128], "dtype": "float32"}, {"name": "BN_41/moving_variance", "shape": [128], "dtype": "float32"}, {"name": "BN_43/gamma", "shape": [128], "dtype": "float32"}, {"name": "BN_43/beta", "shape": [128], "dtype": "float32"}, {"name": "BN_43/moving_mean", "shape": [128], "dtype": "float32"}, {"name": "BN_43/moving_variance", "shape": [128], "dtype": "float32"}, {"name": "BN_44/gamma", "shape": [128], "dtype": "float32"}, {"name": "BN_44/beta", "shape": [128], "dtype": "float32"}, {"name": "BN_44/moving_mean", "shape": [128], "dtype": "float32"}, {"name": "BN_44/moving_variance", "shape": [128], "dtype": "float32"}, {"name": "BN_46/gamma", "shape": [128], "dtype": "float32"}, {"name": "BN_46/beta", "shape": [128], "dtype": "float32"}, {"name": "BN_46/moving_mean", "shape": [128], "dtype": "float32"}, {"name": "BN_46/moving_variance", "shape": [128], "dtype": "float32"}, {"name": "BN_47/gamma", "shape": [128], "dtype": "float32"}, {"name": "BN_47/beta", "shape": [128], "dtype": "float32"}, {"name": "BN_47/moving_mean", "shape": [128], "dtype": "float32"}, {"name": "BN_47/moving_variance", "shape": [128], "dtype": "float32"}, {"name": "BN_49/gamma", "shape": [128], "dtype": "float32"}, {"name": "BN_49/beta", "shape": [128], "dtype": "float32"}, {"name": "BN_49/moving_mean", "shape": [128], "dtype": "float32"}, {"name": "BN_49/moving_variance", "shape": [128], "dtype": "float32"}, {"name": "BN_5/gamma", "shape": [32], "dtype": "float32"}, {"name": "BN_5/beta", "shape": [32], "dtype": "float32"}, {"name": "BN_5/moving_mean", "shape": [32], "dtype": "float32"}, {"name": "BN_5/moving_variance", "shape": [32], "dtype": "float32"}, {"name": "BN_50/gamma", "shape": [128], "dtype": "float32"}, {"name": "BN_50/beta", "shape": [128], "dtype": "float32"}, {"name": "BN_50/moving_mean", "shape": [128], "dtype": "float32"}, {"name": "BN_50/moving_variance", "shape": [128], "dtype": "float32"}, {"name": "BN_52/gamma", "shape": [128], "dtype": "float32"}, {"name": "BN_52/beta", "shape": [128], "dtype": "float32"}, {"name": "BN_52/moving_mean", "shape": [128], "dtype": "float32"}, {"name": "BN_52/moving_variance", "shape": [128], "dtype": "float32"}, {"name": "BN_54/gamma", "shape": [256], "dtype": "float32"}, {"name": "BN_54/beta", "shape": [256], "dtype": "float32"}, {"name": "BN_54/moving_mean", "shape": [256], "dtype": "float32"}, {"name": "BN_54/moving_variance", "shape": [256], "dtype": "float32"}, {"name": "BN_55/gamma", "shape": [512], "dtype": "float32"}, {"name": "BN_55/beta", "shape": [512], "dtype": "float32"}, {"name": "BN_55/moving_mean", "shape": [512], "dtype": "float32"}, {"name": "BN_55/moving_variance", "shape": [512], "dtype": "float32"}, {"name": "BN_56/gamma", "shape": [256], "dtype": "float32"}, {"name": "BN_56/beta", "shape": [256], "dtype": "float32"}, {"name": "BN_56/moving_mean", "shape": [256], "dtype": "float32"}, {"name": "BN_56/moving_variance", "shape": [256], "dtype": "float32"}, {"name": "BN_58/gamma", "shape": [256], "dtype": "float32"}, {"name": "BN_58/beta", "shape": [256], "dtype": "float32"}, {"name": "BN_58/moving_mean", "shape": [256], "dtype": "float32"}, {"name": "BN_58/moving_variance", "shape": [256], "dtype": "float32"}, {"name": "BN_59/gamma", "shape": [256], "dtype": "float32"}, {"name": "BN_59/beta", "shape": [256], "dtype": "float32"}, {"name": "BN_59/moving_mean", "shape": [256], "dtype": "float32"}, {"name": "BN_59/moving_variance", "shape": [256], "dtype": "float32"}, {"name": "BN_6/gamma", "shape": [64], "dtype": "float32"}, {"name": "BN_6/beta", "shape": [64], "dtype": "float32"}, {"name": "BN_6/moving_mean", "shape": [64], "dtype": "float32"}, {"name": "BN_6/moving_variance", "shape": [64], "dtype": "float32"}, {"name": "BN_60/gamma", "shape": [256], "dtype": "float32"}, {"name": "BN_60/beta", "shape": [256], "dtype": "float32"}, {"name": "BN_60/moving_mean", "shape": [256], "dtype": "float32"}, {"name": "BN_60/moving_variance", "shape": [256], "dtype": "float32"}, {"name": "BN_62/gamma", "shape": [256], "dtype": "float32"}, {"name": "BN_62/beta", "shape": [256], "dtype": "float32"}, {"name": "BN_62/moving_mean", "shape": [256], "dtype": "float32"}, {"name": "BN_62/moving_variance", "shape": [256], "dtype": "float32"}, {"name": "BN_63/gamma", "shape": [256], "dtype": "float32"}, {"name": "BN_63/beta", "shape": [256], "dtype": "float32"}, {"name": "BN_63/moving_mean", "shape": [256], "dtype": "float32"}, {"name": "BN_63/moving_variance", "shape": [256], "dtype": "float32"}, {"name": "BN_65/gamma", "shape": [256], "dtype": "float32"}, {"name": "BN_65/beta", "shape": [256], "dtype": "float32"}, {"name": "BN_65/moving_mean", "shape": [256], "dtype": "float32"}, {"name": "BN_65/moving_variance", "shape": [256], "dtype": "float32"}, {"name": "BN_66/gamma", "shape": [256], "dtype": "float32"}, {"name": "BN_66/beta", "shape": [256], "dtype": "float32"}, {"name": "BN_66/moving_mean", "shape": [256], "dtype": "float32"}, {"name": "BN_66/moving_variance", "shape": [256], "dtype": "float32"}, {"name": "BN_68/gamma", "shape": [256], "dtype": "float32"}, {"name": "BN_68/beta", "shape": [256], "dtype": "float32"}, {"name": "BN_68/moving_mean", "shape": [256], "dtype": "float32"}, {"name": "BN_68/moving_variance", "shape": [256], "dtype": "float32"}, {"name": "BN_69/gamma", "shape": [256], "dtype": "float32"}, {"name": "BN_69/beta", "shape": [256], "dtype": "float32"}, {"name": "BN_69/moving_mean", "shape": [256], "dtype": "float32"}, {"name": "BN_69/moving_variance", "shape": [256], "dtype": "float32"}, {"name": "BN_71/gamma", "shape": [256], "dtype": "float32"}, {"name": "BN_71/beta", "shape": [256], "dtype": "float32"}, {"name": "BN_71/moving_mean", "shape": [256], "dtype": "float32"}, {"name": "BN_71/moving_variance", "shape": [256], "dtype": "float32"}, {"name": "BN_72/gamma", "shape": [256], "dtype": "float32"}, {"name": "BN_72/beta", "shape": [256], "dtype": "float32"}, {"name": "BN_72/moving_mean", "shape": [256], "dtype": "float32"}, {"name": "BN_72/moving_variance", "shape": [256], "dtype": "float32"}, {"name": "BN_74/gamma", "shape": [256], "dtype": "float32"}, {"name": "BN_74/beta", "shape": [256], "dtype": "float32"}, {"name": "BN_74/moving_mean", "shape": [256], "dtype": "float32"}, {"name": "BN_74/moving_variance", "shape": [256], "dtype": "float32"}, {"name": "BN_75/gamma", "shape": [256], "dtype": "float32"}, {"name": "BN_75/beta", "shape": [256], "dtype": "float32"}, {"name": "BN_75/moving_mean", "shape": [256], "dtype": "float32"}, {"name": "BN_75/moving_variance", "shape": [256], "dtype": "float32"}, {"name": "BN_77/gamma", "shape": [256], "dtype": "float32"}, {"name": "BN_77/beta", "shape": [256], "dtype": "float32"}, {"name": "BN_77/moving_mean", "shape": [256], "dtype": "float32"}, {"name": "BN_77/moving_variance", "shape": [256], "dtype": "float32"}, {"name": "BN_78/gamma", "shape": [256], "dtype": "float32"}, {"name": "BN_78/beta", "shape": [256], "dtype": "float32"}, {"name": "BN_78/moving_mean", "shape": [256], "dtype": "float32"}, {"name": "BN_78/moving_variance", "shape": [256], "dtype": "float32"}, {"name": "BN_8/gamma", "shape": [64], "dtype": "float32"}, {"name": "BN_8/beta", "shape": [64], "dtype": "float32"}, {"name": "BN_8/moving_mean", "shape": [64], "dtype": "float32"}, {"name": "BN_8/moving_variance", "shape": [64], "dtype": "float32"}, {"name": "BN_80/gamma", "shape": [256], "dtype": "float32"}, {"name": "BN_80/beta", "shape": [256], "dtype": "float32"}, {"name": "BN_80/moving_mean", "shape": [256], "dtype": "float32"}, {"name": "BN_80/moving_variance", "shape": [256], "dtype": "float32"}, {"name": "BN_81/gamma", "shape": [256], "dtype": "float32"}, {"name": "BN_81/beta", "shape": [256], "dtype": "float32"}, {"name": "BN_81/moving_mean", "shape": [256], "dtype": "float32"}, {"name": "BN_81/moving_variance", "shape": [256], "dtype": "float32"}, {"name": "BN_83/gamma", "shape": [256], "dtype": "float32"}, {"name": "BN_83/beta", "shape": [256], "dtype": "float32"}, {"name": "BN_83/moving_mean", "shape": [256], "dtype": "float32"}, {"name": "BN_83/moving_variance", "shape": [256], "dtype": "float32"}, {"name": "BN_85/gamma", "shape": [512], "dtype": "float32"}, {"name": "BN_85/beta", "shape": [512], "dtype": "float32"}, {"name": "BN_85/moving_mean", "shape": [512], "dtype": "float32"}, {"name": "BN_85/moving_variance", "shape": [512], "dtype": "float32"}, {"name": "BN_86/gamma", "shape": [1024], "dtype": "float32"}, {"name": "BN_86/beta", "shape": [1024], "dtype": "float32"}, {"name": "BN_86/moving_mean", "shape": [1024], "dtype": "float32"}, {"name": "BN_86/moving_variance", "shape": [1024], "dtype": "float32"}, {"name": "BN_87/gamma", "shape": [512], "dtype": "float32"}, {"name": "BN_87/beta", "shape": [512], "dtype": "float32"}, {"name": "BN_87/moving_mean", "shape": [512], "dtype": "float32"}, {"name": "BN_87/moving_variance", "shape": [512], "dtype": "float32"}, {"name": "BN_89/gamma", "shape": [512], "dtype": "float32"}, {"name": "BN_89/beta", "shape": [512], "dtype": "float32"}, {"name": "BN_89/moving_mean", "shape": [512], "dtype": "float32"}, {"name": "BN_89/moving_variance", "shape": [512], "dtype": "float32"}, {"name": "BN_90/gamma", "shape": [512], "dtype": "float32"}, {"name": "BN_90/beta", "shape": [512], "dtype": "float32"}, {"name": "BN_90/moving_mean", "shape": [512], "dtype": "float32"}, {"name": "BN_90/moving_variance", "shape": [512], "dtype": "float32"}, {"name": "BN_91/gamma", "shape": [512], "dtype": "float32"}, {"name": "BN_91/beta", "shape": [512], "dtype": "float32"}, {"name": "BN_91/moving_mean", "shape": [512], "dtype": "float32"}, {"name": "BN_91/moving_variance", "shape": [512], "dtype": "float32"}, {"name": "BN_93/gamma", "shape": [512], "dtype": "float32"}, {"name": "BN_93/beta", "shape": [512], "dtype": "float32"}, {"name": "BN_93/moving_mean", "shape": [512], "dtype": "float32"}, {"name": "BN_93/moving_variance", "shape": [512], "dtype": "float32"}, {"name": "BN_94/gamma", "shape": [512], "dtype": "float32"}, {"name": "BN_94/beta", "shape": [512], "dtype": "float32"}, {"name": "BN_94/moving_mean", "shape": [512], "dtype": "float32"}, {"name": "BN_94/moving_variance", "shape": [512], "dtype": "float32"}, {"name": "BN_96/gamma", "shape": [512], "dtype": "float32"}, {"name": "BN_96/beta", "shape": [512], "dtype": "float32"}, {"name": "BN_96/moving_mean", "shape": [512], "dtype": "float32"}, {"name": "BN_96/moving_variance", "shape": [512], "dtype": "float32"}, {"name": "BN_97/gamma", "shape": [512], "dtype": "float32"}, {"name": "BN_97/beta", "shape": [512], "dtype": "float32"}, {"name": "BN_97/moving_mean", "shape": [512], "dtype": "float32"}, {"name": "BN_97/moving_variance", "shape": [512], "dtype": "float32"}, {"name": "BN_99/gamma", "shape": [512], "dtype": "float32"}, {"name": "BN_99/beta", "shape": [512], "dtype": "float32"}, {"name": "BN_99/moving_mean", "shape": [512], "dtype": "float32"}, {"name": "BN_99/moving_variance", "shape": [512], "dtype": "float32"}, {"name": "convn_0/kernel", "shape": [3, 3, 3, 32], "dtype": "float32"}, {"name": "convn_0/bias", "shape": [32], "dtype": "float32"}, {"name": "convn_1/kernel", "shape": [3, 3, 32, 64], "dtype": "float32"}, {"name": "convn_1/bias", "shape": [64], "dtype": "float32"}, {"name": "convn_10/kernel", "shape": [1, 1, 128, 64], "dtype": "float32"}, {"name": "convn_10/bias", "shape": [64], "dtype": "float32"}, {"name": "convn_100/kernel", "shape": [3, 3, 512, 512], "dtype": "float32"}, {"name": "convn_100/bias", "shape": [512], "dtype": "float32"}, {"name": "convn_102/kernel", "shape": [1, 1, 512, 512], "dtype": "float32"}, {"name": "convn_102/bias", "shape": [512], "dtype": "float32"}, {"name": "convn_104/kernel", "shape": [1, 1, 1024, 1024], "dtype": "float32"}, {"name": "convn_104/bias", "shape": [1024], "dtype": "float32"}, {"name": "convn_105/kernel", "shape": [1, 1, 1024, 512], "dtype": "float32"}, {"name": "convn_105/bias", "shape": [512], "dtype": "float32"}, {"name": "convn_106/kernel", "shape": [3, 3, 512, 1024], "dtype": "float32"}, {"name": "convn_106/bias", "shape": [1024], "dtype": "float32"}, {"name": "convn_107/kernel", "shape": [1, 1, 1024, 512], "dtype": "float32"}, {"name": "convn_107/bias", "shape": [512], "dtype": "float32"}, {"name": "convn_11/kernel", "shape": [3, 3, 64, 128], "dtype": "float32"}, {"name": "convn_11/bias", "shape": [128], "dtype": "float32"}, {"name": "convn_114/kernel", "shape": [1, 1, 2048, 512], "dtype": "float32"}, {"name": "convn_114/bias", "shape": [512], "dtype": "float32"}, {"name": "convn_115/kernel", "shape": [3, 3, 512, 1024], "dtype": "float32"}, {"name": "convn_115/bias", "shape": [1024], "dtype": "float32"}, {"name": "convn_116/kernel", "shape": [1, 1, 1024, 512], "dtype": "float32"}, {"name": "convn_116/bias", "shape": [512], "dtype": "float32"}, {"name": "convn_117/kernel", "shape": [1, 1, 512, 256], "dtype": "float32"}, {"name": "convn_117/bias", "shape": [256], "dtype": "float32"}, {"name": "convn_12/kernel", "shape": [1, 1, 128, 64], "dtype": "float32"}, {"name": "convn_12/bias", "shape": [64], "dtype": "float32"}, {"name": "convn_120/kernel", "shape": [1, 1, 512, 256], "dtype": "float32"}, {"name": "convn_120/bias", "shape": [256], "dtype": "float32"}, {"name": "convn_122/kernel", "shape": [1, 1, 512, 256], "dtype": "float32"}, {"name": "convn_122/bias", "shape": [256], "dtype": "float32"}, {"name": "convn_123/kernel", "shape": [3, 3, 256, 512], "dtype": "float32"}, {"name": "convn_123/bias", "shape": [512], "dtype": "float32"}, {"name": "convn_124/kernel", "shape": [1, 1, 512, 256], "dtype": "float32"}, {"name": "convn_124/bias", "shape": [256], "dtype": "float32"}, {"name": "convn_125/kernel", "shape": [3, 3, 256, 512], "dtype": "float32"}, {"name": "convn_125/bias", "shape": [512], "dtype": "float32"}, {"name": "convn_126/kernel", "shape": [1, 1, 512, 256], "dtype": "float32"}, {"name": "convn_126/bias", "shape": [256], "dtype": "float32"}, {"name": "convn_127/kernel", "shape": [1, 1, 256, 128], "dtype": "float32"}, {"name": "convn_127/bias", "shape": [128], "dtype": "float32"}, {"name": "convn_130/kernel", "shape": [1, 1, 256, 128], "dtype": "float32"}, {"name": "convn_130/bias", "shape": [128], "dtype": "float32"}, {"name": "convn_132/kernel", "shape": [1, 1, 256, 128], "dtype": "float32"}, {"name": "convn_132/bias", "shape": [128], "dtype": "float32"}, {"name": "convn_133/kernel", "shape": [3, 3, 128, 256], "dtype": "float32"}, {"name": "convn_133/bias", "shape": [256], "dtype": "float32"}, {"name": "convn_134/kernel", "shape": [1, 1, 256, 128], "dtype": "float32"}, {"name": "convn_134/bias", "shape": [128], "dtype": "float32"}, {"name": "convn_135/kernel", "shape": [3, 3, 128, 256], "dtype": "float32"}, {"name": "convn_135/bias", "shape": [256], "dtype": "float32"}, {"name": "convn_136/kernel", "shape": [1, 1, 256, 128], "dtype": "float32"}, {"name": "convn_136/bias", "shape": [128], "dtype": "float32"}, {"name": "convn_137/kernel", "shape": [3, 3, 128, 256], "dtype": "float32"}, {"name": "convn_137/bias", "shape": [256], "dtype": "float32"}, {"name": "convn_138/kernel", "shape": [1, 1, 256, 18], "dtype": "float32"}, {"name": "convn_138/bias", "shape": [18], "dtype": "float32"}, {"name": "convn_14/kernel", "shape": [1, 1, 128, 64], "dtype": "float32"}, {"name": "convn_14/bias", "shape": [64], "dtype": "float32"}, {"name": "convn_141/kernel", "shape": [3, 3, 128, 256], "dtype": "float32"}, {"name": "convn_141/bias", "shape": [256], "dtype": "float32"}, {"name": "convn_143/kernel", "shape": [1, 1, 512, 256], "dtype": "float32"}, {"name": "convn_143/bias", "shape": [256], "dtype": "float32"}, {"name": "convn_144/kernel", "shape": [3, 3, 256, 512], "dtype": "float32"}, {"name": "convn_144/bias", "shape": [512], "dtype": "float32"}, {"name": "convn_145/kernel", "shape": [1, 1, 512, 256], "dtype": "float32"}, {"name": "convn_145/bias", "shape": [256], "dtype": "float32"}, {"name": "convn_146/kernel", "shape": [3, 3, 256, 512], "dtype": "float32"}, {"name": "convn_146/bias", "shape": [512], "dtype": "float32"}, {"name": "convn_147/kernel", "shape": [1, 1, 512, 256], "dtype": "float32"}, {"name": "convn_147/bias", "shape": [256], "dtype": "float32"}, {"name": "convn_148/kernel", "shape": [3, 3, 256, 512], "dtype": "float32"}, {"name": "convn_148/bias", "shape": [512], "dtype": "float32"}, {"name": "convn_149/kernel", "shape": [1, 1, 512, 18], "dtype": "float32"}, {"name": "convn_149/bias", "shape": [18], "dtype": "float32"}, {"name": "convn_15/kernel", "shape": [1, 1, 64, 64], "dtype": "float32"}, {"name": "convn_15/bias", "shape": [64], "dtype": "float32"}, {"name": "convn_152/kernel", "shape": [3, 3, 256, 512], "dtype": "float32"}, {"name": "convn_152/bias", "shape": [512], "dtype": "float32"}, {"name": "convn_154/kernel", "shape": [1, 1, 1024, 512], "dtype": "float32"}, {"name": "convn_154/bias", "shape": [512], "dtype": "float32"}, {"name": "convn_155/kernel", "shape": [3, 3, 512, 1024], "dtype": "float32"}, {"name": "convn_155/bias", "shape": [1024], "dtype": "float32"}, {"name": "convn_156/kernel", "shape": [1, 1, 1024, 512], "dtype": "float32"}, {"name": "convn_156/bias", "shape": [512], "dtype": "float32"}, {"name": "convn_157/kernel", "shape": [3, 3, 512, 1024], "dtype": "float32"}, {"name": "convn_157/bias", "shape": [1024], "dtype": "float32"}, {"name": "convn_158/kernel", "shape": [1, 1, 1024, 512], "dtype": "float32"}, {"name": "convn_158/bias", "shape": [512], "dtype": "float32"}, {"name": "convn_159/kernel", "shape": [3, 3, 512, 1024], "dtype": "float32"}, {"name": "convn_159/bias", "shape": [1024], "dtype": "float32"}, {"name": "convn_16/kernel", "shape": [3, 3, 64, 64], "dtype": "float32"}, {"name": "convn_16/bias", "shape": [64], "dtype": "float32"}, {"name": "convn_160/kernel", "shape": [1, 1, 1024, 18], "dtype": "float32"}, {"name": "convn_160/bias", "shape": [18], "dtype": "float32"}, {"name": "convn_18/kernel", "shape": [1, 1, 64, 64], "dtype": "float32"}, {"name": "convn_18/bias", "shape": [64], "dtype": "float32"}, {"name": "convn_19/kernel", "shape": [3, 3, 64, 64], "dtype": "float32"}, {"name": "convn_19/bias", "shape": [64], "dtype": "float32"}, {"name": "convn_2/kernel", "shape": [1, 1, 64, 64], "dtype": "float32"}, {"name": "convn_2/bias", "shape": [64], "dtype": "float32"}, {"name": "convn_21/kernel", "shape": [1, 1, 64, 64], "dtype": "float32"}, {"name": "convn_21/bias", "shape": [64], "dtype": "float32"}, {"name": "convn_23/kernel", "shape": [1, 1, 128, 128], "dtype": "float32"}, {"name": "convn_23/bias", "shape": [128], "dtype": "float32"}, {"name": "convn_24/kernel", "shape": [3, 3, 128, 256], "dtype": "float32"}, {"name": "convn_24/bias", "shape": [256], "dtype": "float32"}, {"name": "convn_25/kernel", "shape": [1, 1, 256, 128], "dtype": "float32"}, {"name": "convn_25/bias", "shape": [128], "dtype": "float32"}, {"name": "convn_27/kernel", "shape": [1, 1, 256, 128], "dtype": "float32"}, {"name": "convn_27/bias", "shape": [128], "dtype": "float32"}, {"name": "convn_28/kernel", "shape": [1, 1, 128, 128], "dtype": "float32"}, {"name": "convn_28/bias", "shape": [128], "dtype": "float32"}, {"name": "convn_29/kernel", "shape": [3, 3, 128, 128], "dtype": "float32"}, {"name": "convn_29/bias", "shape": [128], "dtype": "float32"}, {"name": "convn_31/kernel", "shape": [1, 1, 128, 128], "dtype": "float32"}, {"name": "convn_31/bias", "shape": [128], "dtype": "float32"}, {"name": "convn_32/kernel", "shape": [3, 3, 128, 128], "dtype": "float32"}, {"name": "convn_32/bias", "shape": [128], "dtype": "float32"}, {"name": "convn_34/kernel", "shape": [1, 1, 128, 128], "dtype": "float32"}, {"name": "convn_34/bias", "shape": [128], "dtype": "float32"}, {"name": "convn_35/kernel", "shape": [3, 3, 128, 128], "dtype": "float32"}, {"name": "convn_35/bias", "shape": [128], "dtype": "float32"}, {"name": "convn_37/kernel", "shape": [1, 1, 128, 128], "dtype": "float32"}, {"name": "convn_37/bias", "shape": [128], "dtype": "float32"}, {"name": "convn_38/kernel", "shape": [3, 3, 128, 128], "dtype": "float32"}, {"name": "convn_38/bias", "shape": [128], "dtype": "float32"}, {"name": "convn_4/kernel", "shape": [1, 1, 64, 64], "dtype": "float32"}, {"name": "convn_4/bias", "shape": [64], "dtype": "float32"}, {"name": "convn_40/kernel", "shape": [1, 1, 128, 128], "dtype": "float32"}, {"name": "convn_40/bias", "shape": [128], "dtype": "float32"}, {"name": "convn_41/kernel", "shape": [3, 3, 128, 128], "dtype": "float32"}, {"name": "convn_41/bias", "shape": [128], "dtype": "float32"}, {"name": "convn_43/kernel", "shape": [1, 1, 128, 128], "dtype": "float32"}, {"name": "convn_43/bias", "shape": [128], "dtype": "float32"}, {"name": "convn_44/kernel", "shape": [3, 3, 128, 128], "dtype": "float32"}, {"name": "convn_44/bias", "shape": [128], "dtype": "float32"}, {"name": "convn_46/kernel", "shape": [1, 1, 128, 128], "dtype": "float32"}, {"name": "convn_46/bias", "shape": [128], "dtype": "float32"}, {"name": "convn_47/kernel", "shape": [3, 3, 128, 128], "dtype": "float32"}, {"name": "convn_47/bias", "shape": [128], "dtype": "float32"}, {"name": "convn_49/kernel", "shape": [1, 1, 128, 128], "dtype": "float32"}, {"name": "convn_49/bias", "shape": [128], "dtype": "float32"}, {"name": "convn_5/kernel", "shape": [1, 1, 64, 32], "dtype": "float32"}, {"name": "convn_5/bias", "shape": [32], "dtype": "float32"}, {"name": "convn_50/kernel", "shape": [3, 3, 128, 128], "dtype": "float32"}, {"name": "convn_50/bias", "shape": [128], "dtype": "float32"}, {"name": "convn_52/kernel", "shape": [1, 1, 128, 128], "dtype": "float32"}, {"name": "convn_52/bias", "shape": [128], "dtype": "float32"}, {"name": "convn_54/kernel", "shape": [1, 1, 256, 256], "dtype": "float32"}, {"name": "convn_54/bias", "shape": [256], "dtype": "float32"}, {"name": "convn_55/kernel", "shape": [3, 3, 256, 512], "dtype": "float32"}, {"name": "convn_55/bias", "shape": [512], "dtype": "float32"}, {"name": "convn_56/kernel", "shape": [1, 1, 512, 256], "dtype": "float32"}, {"name": "convn_56/bias", "shape": [256], "dtype": "float32"}, {"name": "convn_58/kernel", "shape": [1, 1, 512, 256], "dtype": "float32"}, {"name": "convn_58/bias", "shape": [256], "dtype": "float32"}, {"name": "convn_59/kernel", "shape": [1, 1, 256, 256], "dtype": "float32"}, {"name": "convn_59/bias", "shape": [256], "dtype": "float32"}, {"name": "convn_6/kernel", "shape": [3, 3, 32, 64], "dtype": "float32"}, {"name": "convn_6/bias", "shape": [64], "dtype": "float32"}, {"name": "convn_60/kernel", "shape": [3, 3, 256, 256], "dtype": "float32"}, {"name": "convn_60/bias", "shape": [256], "dtype": "float32"}, {"name": "convn_62/kernel", "shape": [1, 1, 256, 256], "dtype": "float32"}, {"name": "convn_62/bias", "shape": [256], "dtype": "float32"}, {"name": "convn_63/kernel", "shape": [3, 3, 256, 256], "dtype": "float32"}, {"name": "convn_63/bias", "shape": [256], "dtype": "float32"}, {"name": "convn_65/kernel", "shape": [1, 1, 256, 256], "dtype": "float32"}, {"name": "convn_65/bias", "shape": [256], "dtype": "float32"}, {"name": "convn_66/kernel", "shape": [3, 3, 256, 256], "dtype": "float32"}, {"name": "convn_66/bias", "shape": [256], "dtype": "float32"}, {"name": "convn_68/kernel", "shape": [1, 1, 256, 256], "dtype": "float32"}, {"name": "convn_68/bias", "shape": [256], "dtype": "float32"}, {"name": "convn_69/kernel", "shape": [3, 3, 256, 256], "dtype": "float32"}, {"name": "convn_69/bias", "shape": [256], "dtype": "float32"}, {"name": "convn_71/kernel", "shape": [1, 1, 256, 256], "dtype": "float32"}, {"name": "convn_71/bias", "shape": [256], "dtype": "float32"}, {"name": "convn_72/kernel", "shape": [3, 3, 256, 256], "dtype": "float32"}, {"name": "convn_72/bias", "shape": [256], "dtype": "float32"}, {"name": "convn_74/kernel", "shape": [1, 1, 256, 256], "dtype": "float32"}, {"name": "convn_74/bias", "shape": [256], "dtype": "float32"}, {"name": "convn_75/kernel", "shape": [3, 3, 256, 256], "dtype": "float32"}, {"name": "convn_75/bias", "shape": [256], "dtype": "float32"}, {"name": "convn_77/kernel", "shape": [1, 1, 256, 256], "dtype": "float32"}, {"name": "convn_77/bias", "shape": [256], "dtype": "float32"}, {"name": "convn_78/kernel", "shape": [3, 3, 256, 256], "dtype": "float32"}, {"name": "convn_78/bias", "shape": [256], "dtype": "float32"}, {"name": "convn_8/kernel", "shape": [1, 1, 64, 64], "dtype": "float32"}, {"name": "convn_8/bias", "shape": [64], "dtype": "float32"}, {"name": "convn_80/kernel", "shape": [1, 1, 256, 256], "dtype": "float32"}, {"name": "convn_80/bias", "shape": [256], "dtype": "float32"}, {"name": "convn_81/kernel", "shape": [3, 3, 256, 256], "dtype": "float32"}, {"name": "convn_81/bias", "shape": [256], "dtype": "float32"}, {"name": "convn_83/kernel", "shape": [1, 1, 256, 256], "dtype": "float32"}, {"name": "convn_83/bias", "shape": [256], "dtype": "float32"}, {"name": "convn_85/kernel", "shape": [1, 1, 512, 512], "dtype": "float32"}, {"name": "convn_85/bias", "shape": [512], "dtype": "float32"}, {"name": "convn_86/kernel", "shape": [3, 3, 512, 1024], "dtype": "float32"}, {"name": "convn_86/bias", "shape": [1024], "dtype": "float32"}, {"name": "convn_87/kernel", "shape": [1, 1, 1024, 512], "dtype": "float32"}, {"name": "convn_87/bias", "shape": [512], "dtype": "float32"}, {"name": "convn_89/kernel", "shape": [1, 1, 1024, 512], "dtype": "float32"}, {"name": "convn_89/bias", "shape": [512], "dtype": "float32"}, {"name": "convn_90/kernel", "shape": [1, 1, 512, 512], "dtype": "float32"}, {"name": "convn_90/bias", "shape": [512], "dtype": "float32"}, {"name": "convn_91/kernel", "shape": [3, 3, 512, 512], "dtype": "float32"}, {"name": "convn_91/bias", "shape": [512], "dtype": "float32"}, {"name": "convn_93/kernel", "shape": [1, 1, 512, 512], "dtype": "float32"}, {"name": "convn_93/bias", "shape": [512], "dtype": "float32"}, {"name": "convn_94/kernel", "shape": [3, 3, 512, 512], "dtype": "float32"}, {"name": "convn_94/bias", "shape": [512], "dtype": "float32"}, {"name": "convn_96/kernel", "shape": [1, 1, 512, 512], "dtype": "float32"}, {"name": "convn_96/bias", "shape": [512], "dtype": "float32"}, {"name": "convn_97/kernel", "shape": [3, 3, 512, 512], "dtype": "float32"}, {"name": "convn_97/bias", "shape": [512], "dtype": "float32"}, {"name": "convn_99/kernel", "shape": [1, 1, 512, 512], "dtype": "float32"}, {"name": "convn_99/bias", "shape": [512], "dtype": "float32"}]}]}